KMS/best/COIN_epoch=152-step=1224.ckpt (torch, 733666 bytes, 1148 tensors)

input_embeddings.embeddings.isholiday.weight f4 [2, 1]
0	0xbfb92955	-1.4465739
1	0x3fd932a0	1.6968575

input_embeddings.embeddings.month.weight f4 [12, 6]
0	0xbe4f34ba	-0.20234957
1	0xbf8a0a6d	-1.0784432
2	0xbd86ee49	-0.06588418
3	0xbe32964c	-0.17440146
4	0x3c849a16	0.016186755
5	0x402026d2	2.5023694
6	0x3e48df28	0.19616377
7	0x3e98670e	0.29766124
8	0x3fc20779	1.515853
9	0xbfbb8930	-1.4651241
10	0x3f209c98	0.62738943
11	0xbf9c2552	-1.2198889
12	0x3fae408e	1.361345
13	0x3fcfb511	1.6227132
14	0x3f73d519	0.95247036
15	0xbe124f51	-0.1428807
16	0x3fafcbd1	1.3734075
17	0x3e67aa00	0.22623444
18	0x3e753f85	0.23950012
19	0x3f0febe3	0.5621931
20	0x3f40a9bc	0.75258994
21	0x3f248828	0.6427026
22	0x3e114ae4	0.14188725
23	0x3f2b1aa9	0.66837555
24	0x3ef59abe	0.4796962
25	0xbe4a418e	-0.1975157
26	0x3c9d7aa7	0.019223524
27	0xbfac5773	-1.3464187
28	0x3edd4bb2	0.43221813
29	0x3f6aab4a	0.91667616
30	0xbdebc420	-0.11512017
31	0xbd2b40e6	-0.04180994
32	0xbf9c0746	-1.218972
33	0x3fd58062	1.6679804
34	0x3de13e9a	0.109982684
35	0xbf82d788	-1.0222025
36	0x3d0cf373	0.03441186
37	0x3e258b2c	0.16166371
38	0x3ee2a214	0.4426428
39	0x3fa99d96	1.3251216
40	0xbf226106	-0.63429296
41	0x3ee1d457	0.44107315
42	0xbf277b80	-0.6542282
43	0x3fd248ce	1.6428468
44	0xbf4c38f6	-0.79774415
45	0x3e84757e	0.2587089
46	0xbf35bcbd	-0.70991117
47	0x3ea30df4	0.31846583
48	0x3eb4d24c	0.35316694
49	0x3fb3f97f	1.4060515
50	0xbeda10d7	-0.42590973
51	0x3f96529c	1.174396
52	0x4024c43e	2.5744777
53	0x3f0f1122	0.5588552
54	0x3d57535a	0.052569725
55	0x40240582	2.5628362
56	0x3feb009e	1.8359563
57	0x3ea95f24	0.330804
58	0x3f703c9a	0.9384247
59	0xbf213f67	-0.6298737
60	0xbfa6e666	-1.3039062
61	0xbe66ebfc	-0.22550958
62	0x3fbbb868	1.4665651
63	0xbea7c416	-0.3276679
64	0xbebbb98e	-0.36665004
65	0x3e037514	0.1283763
66	0xbf6e52d8	-0.9309516
67	0xbf0b2bfc	-0.5436399
68	0x3d07fa97	0.033197965
69	0x3f021e9a	0.50827944
70	0xbec42a42	-0.3831349
71	0x3ef1d26a	0.47230846

prescalers.encoder_length.weight f4 [8, 1]
0	0x3f17d72c	0.593127
1	0x3f0eb7e6	0.55749357
2	0xbf712276	-0.9419321
3	0xbf5b8144	-0.8574412
4	0x3f5190d2	0.81861603
5	0xbd98e010	-0.074646115
6	0x3ed8a934	0.42316592
7	0xbeeffd98	-0.46873164

prescalers.encoder_length.bias f4 [8]
0	0xbcac04de	-0.020998415
1	0xbda7ed8e	-0.08199607
2	0x3f55016d	0.832053
3	0xbf1ce098	-0.612802
4	0xbef5289a	-0.4788254
5	0xbf03071c	-0.51182723
6	0x3f368f52	0.7131244
7	0x3e8442cc	0.25832212

prescalers.close_coinbase_center.weight f4 [8, 1]
0	0xbe151c48	-0.1456157
1	0xbf5adea8	-0.85495996
2	0x3efadbfc	0.4899596
3	0x3efcf6dc	0.4940709
4	0xbe5ae710	-0.21377206
5	0x3f4569f8	0.7711482
6	0xbe696930	-0.22794032
7	0x3ea29f98	0.31762385

prescalers.close_coinbase_center.bias f4 [8]
0	0xbf558b56	-0.83415735
1	0x3f287c8f	0.6581506
2	0x3f26a778	0.6509929
3	0x3ef4aab8	0.47786498
4	0xbe4674d3	-0.19380502
5	0xbecb8428	-0.39749265
6	0xbf1fea6a	-0.6246706
7	0xbe988ec0	-0.2979641

prescalers.close_coinbase_scale.weight f4 [8, 1]
0	0x3f078d14	0.52949643
1	0xbf627e6c	-0.88474154
2	0xbf04661c	-0.51718307
3	0xbf0bebc4	-0.54656625
4	0x3f724a5c	0.94644713
5	0xbe280d98	-0.16411436
6	0x3eef3aa8	0.4672444
7	0x3ea70c28	0.32626462

prescalers.close_coinbase_scale.bias f4 [8]
0	0x3dfdc308	0.12390715
1	0x3ba9ae51	0.005178251
2	0xbf24f2fa	-0.6443325
3	0x3f3a7b35	0.7284425
4	0x3f40446a	0.7510439
5	0x3e5a54b2	0.21321371
6	0xbf15e0a0	-0.58545876
7	0xbf03f4ae	-0.51545227

prescalers.time_idx.weight f4 [8, 1]
0	0xbf073562	-0.5281583
1	0xbe911160	-0.2833357
2	0x3e793b48	0.2433902
3	0xbf5a3c3e	-0.8524817
4	0x3f489d80	0.78365326
5	0xbe3ecc20	-0.18632555
6	0x3e97bc80	0.29636002
7	0x3f6a7082	0.91577923

prescalers.time_idx.bias f4 [8]
0	0x3e1fe100	0.15613174
1	0xbf5d802a	-0.8652369
2	0xbe934355	-0.28762308
3	0x3f5ab8cd	0.85438234
4	0xbf0b8cd0	-0.5451174
5	0x3f568036	0.83789384
6	0xbeecbe0a	-0.46238738
7	0xbec1fe2c	-0.3788923

prescalers.relative_time_idx.weight f4 [8, 1]
0	0x3f0b7b56	0.5448507
1	0x3e1f5450	0.15559506
2	0x3f4de200	0.80422974
3	0xbe849144	-0.2589208
4	0xbf2c8276	-0.6738657
5	0x3e5a0548	0.21291077
6	0x3f64f398	0.89434195
7	0x3ec026b0	0.37529516

prescalers.relative_time_idx.bias f4 [8]
0	0x3e9af78f	0.30266997
1	0x3d8a2b81	0.06746579
2	0x3eea56bf	0.45769307
3	0x3d3de4f2	0.046360917
4	0x3f57afe5	0.8425277
5	0x3f209d32	0.6273986
6	0x3f7cd15a	0.98756945
7	0xbdd0b7a6	-0.10191278

prescalers.diff.weight f4 [8, 1]
0	0x3f1656ce	0.58726203
1	0x3ecf4f34	0.40490115
2	0xbe516198	-0.20447385
3	0xbf2fef40	-0.6872444
4	0xbede744c	-0.43448102
5	0x3f6e3fae	0.9306592
6	0xbf47b886	-0.78015935
7	0x3ecb4488	0.39700723

prescalers.diff.bias f4 [8]
0	0x3e1d2187	0.15344821
1	0x3f55f43f	0.83575815
2	0x3e4f22a4	0.20228058
3	0x3f5dd9dc	0.8666055
4	0x3f14cafa	0.5812222
5	0xbf37dd7c	-0.71822333
6	0x3d9e4428	0.077278435
7	0x3f56391c	0.8368089

prescalers.diff_vix.weight f4 [8, 1]
0	0xbf4ccdb2	-0.80001366
1	0x3efffa84	0.49995816
2	0xbf1bfb64	-0.60930467
3	0xbf3a7606	-0.7283634
4	0xbf2cbb4a	-0.6747328
5	0x3f76e4bc	0.9644277
6	0x3f04a882	0.5181962
7	0xbf55a6d6	-0.83457696

prescalers.diff_vix.bias f4 [8]
0	0x3f63734a	0.8884779
1	0x3f3b7550	0.7322588
2	0xbd1b2bce	-0.037883572
3	0x3e6d8185	0.23193939
4	0x3ee91ae9	0.45528343
5	0xbf4070e8	-0.7517228
6	0xbf7690b8	-0.96314573
7	0x3e5212dd	0.20515008

prescalers.volume.weight f4 [8, 1]
0	0xbe36ddd8	-0.17858064
1	0xbe6b13e8	-0.22956812
2	0x3f679aba	0.9047047
3	0x3f7a15e2	0.9768964
4	0xbe36a1a8	-0.17835104
5	0x3f255ec8	0.6459775
6	0x3f7e6c0e	0.9938363
7	0xbed23330	-0.41054678

prescalers.volume.bias f4 [8]
0	0x3ea49990	0.3214841
1	0x3f33c914	0.70228696
2	0x3f4e80cc	0.8066528
3	0x3ece931a	0.40346605
4	0xbf01a1ea	-0.50637686
5	0xbf0b3ec1	-0.5439263
6	0xbe8b634d	-0.27224198
7	0xbd08f16e	-0.03343337

prescalers.DCOILWTICO.weight f4 [8, 1]
0	0xbf3642e2	-0.71195805
1	0xbf2537c6	-0.6453823
2	0x3e5e8bb8	0.21732986
3	0xbebfc654	-0.37456
4	0xbf7ea8ea	-0.9947649
5	0x3db600d0	0.08886874
6	0x3f0fe4ce	0.56208503
7	0xbed1ee70	-0.41002226

prescalers.DCOILWTICO.bias f4 [8]
0	0xbea5c96c	-0.32380235
1	0x3d9083f1	0.07056416
2	0x3de46282	0.111516014
3	0x3f3a2bdc	0.72723174
4	0x3ea15fc9	0.3151839
5	0x3e8b3450	0.2718835
6	0x3f3c71ae	0.7361096
7	0xbe9f9fd3	-0.31176624

prescalers.diff_coinbase.weight f4 [8, 1]
0	0xbe9af84c	-0.3026756
1	0x3f074af8	0.5284877
2	0x3da6cdb0	0.081447005
3	0xbf6d7f60	-0.92772484
4	0xbf19c06e	-0.6005925
5	0x3f5f0998	0.87124014
6	0xbee9c858	-0.45660663
7	0x3f1a41c0	0.60256577

prescalers.diff_coinbase.bias f4 [8]
0	0x3ddeae16	0.10873048
1	0xbe2ff59c	-0.17183536
2	0x3cab7c06	0.020933162
3	0xbcb3e948	-0.021961823
4	0xbc26afc6	-0.010173744
5	0x3f216fb6	0.6306108
6	0x3e88550e	0.26627392
7	0x3f35448a	0.7080771

static_variable_selection.flattened_grn.resample_norm.mask f4 [4]
0	0xbe1682f8	-0.14698398
1	0x3d6eec37	0.05833074
2	0xbe61c3ba	-0.2204732
3	0x3e6baf96	0.230162

static_variable_selection.flattened_grn.resample_norm.norm.weight f4 [4]
0	0x3f5ffc81	0.87494665
1	0x3f82aa4c	1.020822
2	0x3f6e04ef	0.9297628
3	0x3fa02b41	1.25132

static_variable_selection.flattened_grn.resample_norm.norm.bias f4 [4]
0	0xbc949897	-0.018139167
1	0x3e314692	0.17312077
2	0xbd8f6216	-0.0700113
3	0xbe6b3f12	-0.22973278

static_variable_selection.flattened_grn.fc1.weight f4 [4, 25]
0	0x3e49ea86	0.1971837
1	0xbebda726	-0.37041587
2	0x3e14cda5	0.14531572
3	0x3ceb573b	0.028728118
4	0xbdca4648	-0.09876686
5	0xbe967dae	-0.2939276
6	0xbef3aa12	-0.4759069
7	0x3eee8562	0.46586138
8	0x3e249cf9	0.16075505
9	0x3dc80614	0.09766784
10	0x3e6e5cb2	0.23277548
11	0xbe02373b	-0.12716381
12	0x3e059cfa	0.13048163
13	0x3dc7fabc	0.09764621
14	0xb9bf360c	-0.00036470627
15	0x3e2352e5	0.1594959
16	0xbe4c9c6f	-0.1998155
17	0x3caaebbf	0.020864366
18	0x3e9e6918	0.30939555
19	0xbf22fc6e	-0.6366643
20	0x3e85b0b0	0.26111364
21	0x3e3b1ee2	0.182735
22	0xbedbf2b4	-0.42958605
23	0xbdda43b3	-0.10657444
24	0x3b2ee61e	0.0026687454
25	0xbd582b2c	-0.052775547
26	0x3e8606d9	0.261771
27	0xbd8e2125	-0.069399156
28	0x3e423a3f	0.18967532
29	0xbef310b4	-0.4747368
30	0xbdec2bb7	-0.115317754
31	0x3ddbf816	0.10740678
32	0xbc9bf67c	-0.019038431
33	0x3e847a05	0.25874344
34	0xbe94b416	-0.29043645
35	0xbe7ee34d	-0.24891396
36	0xbea159a6	-0.3151371
37	0x3e9c9f4e	0.3059029
38	0x3ebd5876	0.36981553
39	0xbe074648	-0.13210404
40	0xbe8145aa	-0.25248462
41	0xbcf04182	-0.029328112
42	0xbe39d40a	-0.18147293
43	0xbe67598c	-0.22592753
44	0x3dd2a5c4	0.102855235
45	0x3dbafc12	0.0913011
46	0x3f01cede	0.5070628
47	0x3e5f79b0	0.21823764
48	0x3aa457fc	0.0012538428
49	0xbd94b791	-0.07261575
50	0x3dc736c5	0.09727243
51	0x3d852d9c	0.0650284
52	0xbe970446	-0.29495448
53	0x3eac4855	0.33648935
54	0xbe673390	-0.22578263
55	0xbb8c39ae	-0.004279337
56	0xbf04ecf4	-0.5192406
57	0xbe38d51c	-0.18050045
58	0xbe6293ce	-0.22126696
59	0xbdcf619d	-0.1012604
60	0x3deb71ce	0.11496316
61	0x3edf93dc	0.43667495
62	0xbeac9af6	-0.33711976
63	0xbeb45882	-0.35223776
64	0xbde0c1c0	-0.10974455
65	0xbe47fc25	-0.1952978
66	0x3a39dc31	0.0007090001
67	0x3eb6b771	0.3568683
68	0x3da4a4b3	0.080392264
69	0x3eddffa2	0.43359095
70	0x3e161ab4	0.14658624
71	0x3e636dbe	0.22209832
72	0x3e6ab608	0.22921002
73	0x3d908446	0.07056479
74	0x3e10faea	0.14158216
75	0x3dbfeeb2	0.093716994
76	0xbe7c9ff0	-0.24670386
77	0xbe80257c	-0.25028598
78	0x3d1e5f85	0.038665313
79	0xbedefebe	-0.43553728
80	0x3d96f801	0.07371522
81	0x3b78b8ea	0.0037952014
82	0x3dce65df	0.10078024
83	0x3e31b1ea	0.17353025
84	0xbe98ddaf	-0.2985663
85	0x3e06dbb9	0.13169755
86	0x3dedc492	0.116097584
87	0xbe06f23c	-0.13178343
88	0x3e5072f6	0.20356354
89	0x3d2197ce	0.039451413
90	0x3e868638	0.26274276
91	0xbe04eae0	-0.12980223
92	0xbe6037aa	-0.21896234
93	0xbf0efa5e	-0.5585078
94	0xbf17235e	-0.5903834
95	0xbea045be	-0.3130321
96	0x3e03a12a	0.12854448
97	0xbb85317c	-0.004064737
98	0x3cf3b8fe	0.029751297
99	0x3d801f0c	0.06255922

static_variable_selection.flattened_grn.fc1.bias f4 [4]
0	0x3c98f539	0.018671619
1	0x3d0f9cde	0.03506171
2	0x3d9c4e40	0.076321125
3	0x3b236fae	0.0024938392

static_variable_selection.flattened_grn.fc2.weight f4 [4, 4]
0	0x3e77e97e	0.24210164
1	0xbf233fde	-0.6376933
2	0x3f629948	0.8851514
3	0x3f5fe8c8	0.8746457
4	0xbdc1a82d	-0.09455905
5	0xbf005224	-0.50125337
6	0x3b69a253	0.0035649731
7	0x3dd54fde	0.10415624
8	0xbdd933b8	-0.10605568
9	0xbf451d2e	-0.7699765
10	0x3d141a4e	0.0361579
11	0xbe2e3ca4	-0.1701532
12	0x3e8c8b03	0.27449808
13	0x3f4731e7	0.7781052
14	0x3f17e1e2	0.59329045
15	0x3f5547e6	0.83312833

static_variable_selection.flattened_grn.fc2.bias f4 [4]
0	0xbdb173c1	-0.086646564
1	0x3e23af5a	0.1598486
2	0x3dbcf4e6	0.09226398
3	0x3dc9be5c	0.09850761

static_variable_selection.flattened_grn.gate_norm.glu.fc.weight f4 [8, 4]
0	0xbee3ffde	-0.4453115
1	0x3e8d62c6	0.2761442
2	0xbeb44ca8	-0.35214734
3	0xbed318d8	-0.41229892
4	0xbf0da9e2	-0.55337346
5	0x3f204590	0.62606144
6	0x3eedbda1	0.46433738
7	0xbf0798f8	-0.52967787
8	0xbe425e53	-0.18981294
9	0xbe1e3a91	-0.15452029
10	0x3dd4f285	0.103978194
11	0x3e43660c	0.19081897
12	0xbef1d9da	-0.4723652
13	0xbf3d8896	-0.7403654
14	0xbd82b2ba	-0.06381746
15	0x3f02ae66	0.5104736
16	0xbf08cae6	-0.534346
17	0x3f26f669	0.6521974
18	0xbd07d2d0	-0.03316003
19	0xbeec64f4	-0.4617077
20	0xbf2190f6	-0.6311182
21	0xbed4ef32	-0.41588742
22	0x3f25b476	0.64728487
23	0xbf328cc0	-0.6974602
24	0xbd8ea76e	-0.069655284
25	0xbe53b83c	-0.20675749
26	0x3f0d5f50	0.5522356
27	0xbe3d5b4a	-0.18491855
28	0x3e8b2c43	0.27182207
29	0x3f4b881a	0.7950455
30	0x3f19482c	0.5987575
31	0x3e5ba696	0.21450266

static_variable_selection.flattened_grn.gate_norm.glu.fc.bias f4 [8]
0	0x3c215fdc	0.009849515
1	0x3e0c3518	0.13692129
2	0xbd1f6efb	-0.0389242
3	0xbe4d9ad2	-0.2007859
4	0x3bdcc088	0.0067368187
5	0x3e29a4fe	0.16566846
6	0x3bc50e8c	0.006013697
7	0xbd9f7344	-0.07785657

static_variable_selection.flattened_grn.gate_norm.add_norm.norm.weight f4 [4]
0	0x3f5282b4	0.8223069
1	0x3f7c42ed	0.9853962
2	0x3f562502	0.8365022
3	0x3f7cbf93	0.9872982

static_variable_selection.flattened_grn.gate_norm.add_norm.norm.bias f4 [4]
0	0xbd981c9a	-0.0742733
1	0x3dba152e	0.09086071
2	0xbd392500	-0.0452013
3	0xbda24cc6	-0.079247996

static_variable_selection.single_variable_grns.isholiday.mask f4 [16]
0	0x3b8e6570	0.0043455884
1	0x3a7036b4	0.0009163425
2	0x3d090134	0.033448413
3	0xbb92586b	-0.0044661066
4	0x39249374	0.0001569519
5	0xbc7329c8	-0.014841504
6	0xbaea0141	-0.0017853157
7	0x3ae655ce	0.0017573179
8	0x3c8beba0	0.017080128
9	0xbc331930	-0.010931298
10	0xbc68c598	-0.014207266
11	0xbd1546e8	-0.036444575
12	0x3d20e1f4	0.039277986
13	0x3c6d37ce	0.014478637
14	0xbbac0dd6	-0.005250673
15	0x3c281764	0.010259483

static_variable_selection.single_variable_grns.isholiday.norm.weight f4 [16]
0	0x3f77555c	0.96614623
1	0x3f790295	0.97269565
2	0x3f81a421	1.0128213
3	0x3f7f5f4e	0.997548
4	0x3f7a57ef	0.97790426
5	0x3f7ecfd0	0.99535847
6	0x3f7fe0d6	0.9995245
7	0x3f7e1412	0.99249375
8	0x3f7d872a	0.9903437
9	0x3f7d91fa	0.9905087
10	0x3f7d8d74	0.99043965
11	0x3f8163d0	1.0108585
12	0x3f800a6e	1.0003183
13	0x3f7b0b64	0.98064256
14	0x3f7c0b44	0.9845469
15	0x3f7933e6	0.97344816

static_variable_selection.single_variable_grns.isholiday.norm.bias f4 [16]
0	0xbb072a10	-0.0020624436
1	0x3bbb4a48	0.005715642
2	0xbd8737ca	-0.06602438
3	0x3c74f96a	0.014952043
4	0xbd074778	-0.033027142
5	0xbc92330e	-0.01784661
6	0x3c6843bc	0.014176305
7	0xbccb5c02	-0.024824146
8	0xbd646782	-0.055762775
9	0x3c2f28f8	0.01069092
10	0x3c4d1e8a	0.012519488
11	0x3cde49bc	0.027134769
12	0xbd25936c	-0.040423796
13	0x3d49883e	0.049202196
14	0x3c0a6a81	0.008448244
15	0xbb961e86	-0.0045812754

static_variable_selection.single_variable_grns.encoder_length.resample_norm.mask f4 [16]
0	0xbc9d4c4c	-0.01920142
1	0xbd85e1ac	-0.06537184
2	0xbd38fa96	-0.045160852
3	0x3da67208	0.081272185
4	0x3e0b826c	0.13623971
5	0x3caf7cd0	0.02142182
6	0xbd98cd81	-0.07461072
7	0xbcad12be	-0.021127101
8	0xbcf26fc9	-0.029594319
9	0x3e25556a	0.16145864
10	0x3d383f6c	0.04498236
11	0xbc9a4dbe	-0.018835898
12	0xbd81e696	-0.06342809
13	0xbcf901ba	-0.030396331
14	0xbcd5ab9b	-0.026082804
15	0x3bd40f6a	0.006471564

static_variable_selection.single_variable_grns.encoder_length.resample_norm.norm.weight f4 [16]
0	0x3f7e1482	0.9925004
1	0x3f70794c	0.93935084
2	0x3f74e87a	0.9566723
3	0x3f8ba248	1.0908899
4	0x3f91eb91	1.1400014
5	0x3f82a159	1.0205489
6	0x3f6f1090	0.9338465
7	0x3f7d814b	0.9902541
8	0x3f79a7e1	0.9752179
9	0x3f95dcc0	1.1707993
10	0x3f871bc2	1.0555346
11	0x3f7ce90e	0.98793113
12	0x3f6fbb40	0.93645096
13	0x3f7af05a	0.98023
14	0x3f7a38fa	0.9774319
15	0x3f804e20	1.0023842

static_variable_selection.single_variable_grns.encoder_length.resample_norm.norm.bias f4 [16]
0	0xbd89b3bc	-0.06723735
1	0xbd5bd0cd	-0.053665925
2	0xbdaf3456	-0.08554904
3	0x3d6d736b	0.0579714
4	0xba77b5b0	-0.0009449376
5	0x3d8d9826	0.06913786
6	0x3dd17c24	0.10228756
7	0x3c9f4550	0.01944223
8	0x3afe3a8a	0.0019396108
9	0xbccf8e79	-0.025336491
10	0xbc93a425	-0.018022606
11	0x3cbb5e36	0.022872072
12	0xbd7bfa3e	-0.061517946
13	0xbbcfe09e	-0.006343915
14	0xbcafb853	-0.021450197
15	0x3d049e41	0.032377485

static_variable_selection.single_variable_grns.encoder_length.fc1.weight f4 [8, 8]
0	0x3f216583	0.6304552
1	0xbee94d68	-0.4556687
2	0xbe55bfe2	-0.20873979
3	0xbd41fa16	-0.04735764
4	0xbf168231	-0.58792406
5	0xbe53c558	-0.2068075
6	0xbeac9570	-0.33707762
7	0xbed077ce	-0.40716404
8	0xbe1be292	-0.15223148
9	0xbef97d2b	-0.48728308
10	0x3d69ebed	0.057109762
11	0x3f154dc4	0.58321786
12	0xbf880dc8	-1.0629206
13	0x3bba9bb2	0.00569483
14	0xbeb4e4dc	-0.35330856
15	0xbe47d77b	-0.19515793
16	0x3e9d012c	0.30664957
17	0xbeb12d4e	-0.34604877
18	0x3e38ab64	0.1803413
19	0xbccf765b	-0.025324991
20	0xbe6f3e23	-0.23363547
21	0xbf02e234	-0.5112641
22	0xbd41ad62	-0.04728449
23	0xbedf30ce	-0.43591923
24	0x3f432de5	0.76241904
25	0x3e85e164	0.26148522
26	0xbf14fd50	-0.58199024
27	0xbe116078	-0.14196956
28	0xbf12e148	-0.57375
29	0xbf94dd7e	-1.1630094
30	0x3ea4f28b	0.32216296
31	0x3f16648d	0.5874718
32	0xbd18d51c	-0.037312612
33	0x3eeb53ca	0.45962363
34	0xbec21990	-0.37910128
35	0xbf3b796c	-0.7323215
36	0x3f2a9ab6	0.6664232
37	0x3f1323cf	0.57476515
38	0xbe348efa	-0.17632666
39	0x3ea2dbee	0.31808418
40	0xbf1b04f0	-0.6055441
41	0x3e596828	0.21231139
42	0xbef0449c	-0.46927345
43	0xbea84161	-0.3286238
44	0xbf1af41e	-0.60528743
45	0x3e875281	0.26430133
46	0xbf1aec0a	-0.6051642
47	0xbe17c717	-0.1482204
48	0x3f9647be	1.1740644
49	0x3f1a3a90	0.6024561
50	0xbe3dc96d	-0.18533869
51	0x3f10b5a5	0.5652717
52	0x3d3ce598	0.046117395
53	0xbebcbe8d	-0.3686413
54	0x3f2c08b8	0.67200804
55	0x3f0fc5d0	0.5616121
56	0xbf10c18e	-0.5654534
57	0x3f43cbe0	0.76482964
58	0xbf782120	-0.96925545
59	0x3f0c453c	0.54793143
60	0xbe487ca3	-0.19578795
61	0x3e0a525c	0.1350798
62	0xbcec5906	-0.028851043
63	0xbebbc29a	-0.36671907

static_variable_selection.single_variable_grns.encoder_length.fc1.bias f4 [8]
0	0x3ca9fb5a	0.020749737
1	0x3db25660	0.08707881
2	0x3ca98ea4	0.0206979
3	0xbe09de64	-0.13463742
4	0x3bc3c648	0.0059745647
5	0xbd9df423	-0.07712581
6	0x3bc03bb0	0.0058664903
7	0xbd217050	-0.03941375

static_variable_selection.single_variable_grns.encoder_length.fc2.weight f4 [8, 8]
0	0x3ea1ba0e	0.3158726
1	0xbe20f5e2	-0.15718797
2	0xbf90ec2c	-1.1322074
3	0x3e47f3bc	0.19526571
4	0xbeefa216	-0.4680335
5	0xbdcf73e0	-0.10129523
6	0x3f763322	0.9617177
7	0x3eca8d98	0.39561152
8	0xbf3e7a93	-0.74405783
9	0x3d0ef340	0.03489995
10	0x3f04f2e4	0.5193312
11	0x3eda38d4	0.4262148
12	0x3ebfdf46	0.37475032
13	0xbf4fec50	-0.8121996
14	0xbea65c26	-0.3249218
15	0x3ea9f2ae	0.33192962
16	0x3ceba3ac	0.028764568
17	0xbebc6872	-0.36798435
18	0xbc503746	-0.012708491
19	0x3fae1f7e	1.3603361
20	0x3e78ea26	0.2430807
21	0x3e92c85a	0.2866848
22	0xbf252d44	-0.64522195
23	0x3f3b8682	0.7325212
24	0xbf1239a6	-0.57119215
25	0xbe2ab262	-0.1666961
26	0x3deac238	0.114628255
27	0x3f9cd168	1.2251406
28	0xbf30771f	-0.68931764
29	0x3f48ff8a	0.7851492
30	0x3b853f56	0.004066388
31	0x3f21c3ce	0.631894
32	0x3e8dec0a	0.27719146
33	0xbf27f882	-0.6561357
34	0xbf2af56e	-0.66780746
35	0x3d4a28ea	0.049355425
36	0x3ed66750	0.41875696
37	0x3e76535a	0.24055234
38	0xbe8d1460	-0.27554607
39	0x3eab3a03	0.33442697
40	0xbe1d73a6	-0.15376148
41	0x3f376514	0.7163861
42	0xbd23565a	-0.039877273
43	0xbd361ae8	-0.044459254
44	0xbf051e80	-0.51999664
45	0xbe5d44c5	-0.21608265
46	0x3eec691b	0.4617394
47	0x3efc1419	0.49234083
48	0xbd7a3aa0	-0.061091065
49	0xbf23374e	-0.63756263
50	0xbf932fff	-1.1499022
51	0x3de7247f	0.11286258
52	0xbecd8a06	-0.40144366
53	0x3e5de2c2	0.21668532
54	0xbdb75316	-0.08951394
55	0x3cef3b9c	0.029203229
56	0x3e2995fa	0.16561118
57	0xbf262c56	-0.649114
58	0x3ec29677	0.3800542
59	0x3e669586	0.22517976
60	0xbf4c2228	-0.7973962
61	0x3ef091e2	0.469863
62	0x3e704ecd	0.2346756
63	0xbf0d2c14	-0.5514538

static_variable_selection.single_variable_grns.encoder_length.fc2.bias f4 [8]
0	0xbd822fda	-0.06356783
1	0xbcaf77aa	-0.021419365
2	0xbd81146e	-0.06302725
3	0xbdaa71bc	-0.08322474
4	0xbdfed1be	-0.12442349
5	0x3d8dcfae	0.069243774
6	0x3d3d72c8	0.046252042
7	0xbd7d6054	-0.061859444

static_variable_selection.single_variable_grns.encoder_length.gate_norm.glu.fc.weight f4 [32, 8]
0	0x3e98307f	0.297245
1	0xbc84feee	-0.016234841
2	0x3e356046	0.17712507
3	0xbe934f9b	-0.28771672
4	0x3da537e2	0.080672994
5	0xbe3651de	-0.17804667
6	0xbd8e34a0	-0.06943631
7	0x3e32b9fd	0.17453761
8	0xbe636572	-0.22206667
9	0x3e0f47e6	0.13992271
10	0xbcd72c98	-0.026266381
11	0xbe9b30f0	-0.30310774
12	0x3eade324	0.33962357
13	0xbe99acaa	-0.30014545
14	0xbc3c6689	-0.011499056
15	0xbe7614fa	-0.2403144
16	0x3dbcd966	0.09221153
17	0xbea5c913	-0.3237997
18	0xbc90ed8c	-0.017691396
19	0xbedbda52	-0.42940003
20	0x3edfc934	0.43708193
21	0xbd0ea2d6	-0.03482326
22	0x3e885907	0.26630422
23	0xbd16b6c8	-0.036795408
24	0xbe656a7a	-0.22403899
25	0xbe842478	-0.25809073
26	0x3eb08bed	0.34481755
27	0x3df3fb22	0.11913134
28	0xbe18077c	-0.14846605
29	0xbdabb515	-0.08384148
30	0x3e8da606	0.27665728
31	0x3e8583cc	0.26077116
32	0x3e1b185d	0.15146013
33	0x3da3b59a	0.07993622
34	0x3dbc82f4	0.09204665
35	0xbe802746	-0.25029963
36	0xbd860d82	-0.06545545
37	0x3c339b64	0.010962341
38	0x3e864ca4	0.26230347
39	0x3e954f0a	0.29161865
40	0x3e6dc2ea	0.23218885
41	0x3e61bcf2	0.22044733
42	0x3e3b4534	0.18288118
43	0xbe303742	-0.17208579
44	0xbc2ab49c	-0.010419037
45	0x3c8b1d64	0.016981788
46	0xbe1d3225	-0.1535116
47	0x3e1ee234	0.15515977
48	0xbea427ba	-0.3206156
49	0xbe6e9878	-0.2330035
50	0xbdfec6e9	-0.12440283
51	0xbe583c04	-0.21116644
52	0xbe3f4fea	-0.18682829
53	0xbe5408c0	-0.20706463
54	0x3e4fb3e7	0.20283471
55	0xbe39fc13	-0.18162565
56	0xbdbd8da5	-0.09255532
57	0x3e113c16	0.14183077
58	0x3ea8fcbe	0.33005327
59	0xbe3a5bec	-0.18199128
60	0xbd47f51e	-0.048817746
61	0xbe880c30	-0.26571798
62	0x3e96cad6	0.29451627
63	0xbe149e10	-0.14513421
64	0xbdc818ce	-0.09770356
65	0xbd24c7a6	-0.040229462
66	0x3dd0e940	0.10200739
67	0x3e19e03d	0.15026946
68	0xbe848b7f	-0.25887677
69	0x3dc0398e	0.09385978
70	0x3e8df16c	0.27723253
71	0x3edc3597	0.43009636
72	0x3dabeafd	0.0839443
73	0xbe94bfc9	-0.2905257
74	0x3d2a7b76	0.041621648
75	0xbe5b5405	-0.2141877
76	0x3ca33edc	0.019927435
77	0xbdfaf83c	-0.12254378
78	0x3e84300b	0.25817904
79	0xbd8a9c70	-0.06768119
80	0xbe9b7ffc	-0.30371082
81	0x3e4079b1	0.18796422
82	0x3eb1a31f	0.34694764
83	0x3e849b26	0.2589962
84	0xbe0b2b48	-0.13590729
85	0xbe96cbf9	-0.29452494
86	0xbd439ec1	-0.04775882
87	0x3e33c64e	0.17556116
88	0x3e9cfeeb	0.30663237
89	0x3d58c392	0.052920885
90	0x3e14bfe0	0.1452632
91	0x3e2546f2	0.16140345
92	0xbbac9442	-0.005266697
93	0x3e21746e	0.1576707
94	0xbe6c659b	-0.23085634
95	0x3e89bda8	0.2690251
96	0xbe399e5d	-0.18126817
97	0xbeb59136	-0.3546235
98	0x3de2fb5c	0.11083099
99	0xbd7df36e	-0.06199973
100	0x3eb0ae0c	0.34507787
101	0x3e0b3d48	0.13597596
102	0xbd132414	-0.03592308
103	0xbd810c79	-0.06301207
104	0xbe6fbf93	-0.23412924
105	0xbdc3a9d2	-0.09553875
106	0x3dbce826	0.09223966
107	0x3e24a85c	0.16079849
108	0x3e016ec2	0.12639907
109	0xbd9ae986	-0.07564072
110	0xbe939619	-0.28825453
111	0xbe9cda89	-0.3063548
112	0xbe6062be	-0.21912667
113	0xbe333ada	-0.17502919
114	0x3e711012	0.23541287
115	0xbd90a286	-0.07062249
116	0x3e4f1fc9	0.20226969
117	0xbe414a5e	-0.18876025
118	0xbdb9d8e2	-0.0907457
119	0xbe9e2b36	-0.30892342
120	0xbe19e8a9	-0.15030159
121	0x3e654504	0.22389609
122	0x3ea43a4f	0.32075736
123	0xbba82a32	-0.005131983
124	0xbc6193e8	-0.013768174
125	0xbea9f8fc	-0.33197773
126	0xbe940aec	-0.28914583
127	0x3e6dc5ae	0.2321994
128	0xbeb076b2	-0.34465557
129	0xbeca739c	-0.39541328
130	0xbe7ea066	-0.24865875
131	0x3ca7a7d6	0.020465773
132	0x3e803763	0.25042257
133	0xbe39ea33	-0.18155746
134	0xbe2ef531	-0.1708572
135	0x3ec544a4	0.3852893
136	0x3e27066a	0.1631104
137	0x3e7d9b70	0.24766326
138	0xbe94cd6d	-0.29062977
139	0xbe3e0846	-0.18557844
140	0x3ead6cd4	0.33872092
141	0x3d4b2a08	0.04960063
142	0x3ea0fe24	0.31443894
143	0x3ea59afe	0.32344812
144	0x3e363981	0.17795373
145	0x3ecce69a	0.40019685
146	0xbe971099	-0.2950485
147	0xbe01b852	-0.12667969
148	0xbee34590	-0.4438901
149	0xbe4a8250	-0.19776273
150	0xbe2012f7	-0.15632235
151	0x3e2b8fa0	0.16754007
152	0x3e78858e	0.24269697
153	0xbe6d7cc3	-0.23192124
154	0xbe44d43c	-0.19221586
155	0x3c3391fb	0.010960097
156	0xbe023788	-0.12716496
157	0xbe9cfadd	-0.30660143
158	0x3dbbced0	0.09170306
159	0x3e4bcc82	0.19902232
160	0xbeae029b	-0.33986363
161	0x3e086ac7	0.13321982
162	0x3e2940b8	0.16528594
163	0x3e133324	0.14374977
164	0xbe67f906	-0.22653589
165	0xbe857f41	-0.2607365
166	0x3d800978	0.06251806
167	0x3e91fc72	0.28512913
168	0xbe20f311	-0.15717722
169	0xbdfacccc	-0.12246093
170	0x3e8216fb	0.25408158
171	0x3dc1ac20	0.09456658
172	0x3e1bb4f6	0.1520575
173	0x3e898593	0.26859722
174	0xbde81770	-0.11332595
175	0x3c4983ce	0.012299491
176	0xbec3cd82	-0.38242728
177	0x3eb5b8e6	0.3549263
178	0x3e83de6d	0.25755635
179	0x3cbd97a8	0.023143604
180	0x3e9fd1fc	0.31214893
181	0x3c78214d	0.015144658
182	0xbcfd4c59	-0.030920194
183	0xbcf02dd0	-0.02931872
184	0x3e269220	0.1626668
185	0xbd71b20e	-0.059007697
186	0x3e13c4b9	0.14430512
187	0x3e618d26	0.220265
188	0x3e257e18	0.16161382
189	0x3e841b90	0.2580228
190	0xbd81fb5e	-0.063467726
191	0x3eb8bec6	0.3608305
192	0xbe9753ab	-0.2955602
193	0x3def478e	0.1168357
194	0xbd71668b	-0.058935683
195	0xbdf90eac	-0.121610016
196	0x3e0376f1	0.12838341
197	0x3cf80364	0.030275054
198	0xbe8ce01a	-0.27514726
199	0x3e3f5216	0.18683657
200	0xbdc88733	-0.09791412
201	0xbe611a2c	-0.2198264
202	0xbebb9ff5	-0.36645475
203	0xbe55c60b	-0.20876329
204	0xbe10936c	-0.14118737
205	0x3da25165	0.07925681
206	0xbeaf5a65	-0.34248653
207	0x3e41fc18	0.18943822
208	0xbe7b0c04	-0.24516302
209	0xbe91864b	-0.2842277
210	0x3dbe5246	0.09293036
211	0x3e232d3a	0.15935221
212	0x3d885242	0.066563144
213	0xbe3340b6	-0.17505154
214	0x3ead9229	0.33900574
215	0x3e742886	0.23843583
216	0x3e916eba	0.2840479
217	0xbd17c34b	-0.03705148
218	0xbe48c20a	-0.1960527
219	0xbe04bf43	-0.12963586
220	0x3ea713e3	0.3263236
221	0x3daef9b8	0.08543724
222	0xbda14654	-0.07874742
223	0xbea98c57	-0.33114883
224	0xbd422f3c	-0.047408327
225	0x3e7bafd6	0.24578795
226	0xbcfe503f	-0.031044124
227	0xbebb6675	-0.36601606
228	0x3e517b06	0.20457086
229	0xbe0bf3eb	-0.13667266
230	0x3e8af370	0.27138853
231	0x3e5d8289	0.21631826
232	0x3dc6e171	0.09710968
233	0x3c801eca	0.015639681
234	0xbe6d4f80	-0.23174858
235	0x3e69f212	0.22846249
236	0xbeb36153	-0.3503519
237	0x3e9dace2	0.30795962
238	0xbebec164	-0.3725692
239	0xbe5905a5	-0.2119356
240	0xbe8b9132	-0.27259213
241	0xbe7ff1ba	-0.24994555
242	0xbed85fa1	-0.4226046
243	0xbc94aa2c	-0.01814755
244	0xbd3ca5fe	-0.04605674
245	0x3e4db26e	0.20087597
246	0x3e16c8e3	0.1472507
247	0x3e1465bb	0.14491932
248	0xbba02df4	-0.0048882905
249	0xbe197238	-0.14984977
250	0xbd984616	-0.07435243
251	0x3d9a330c	0.07529268
252	0xbe98d823	-0.298524
253	0x3e0278fe	0.12741467
254	0xbdfe3bfb	-0.12413784
255	0x3ddbb547	0.10727935

static_variable_selection.single_variable_grns.encoder_length.gate_norm.glu.fc.bias f4 [32]
0	0xbd8f2a49	-0.06990487
1	0xbd5e40ae	-0.054260902
2	0xbd96ea08	-0.07368857
3	0x3d5f17be	0.054466
4	0xbbe2b700	-0.006918788
5	0x3d5d3ab8	0.054011077
6	0x3dae36ea	0.08506568
7	0x3ce57a87	0.028012527
8	0x3c22fe1e	0.009948282
9	0xbd3fee85	-0.04685833
10	0xbcacabda	-0.021078039
11	0x3ca6a076	0.020340186
12	0xbd989176	-0.074496195
13	0xbd10f254	-0.035387352
14	0xbd03487c	-0.03205155
15	0x3c98c65b	0.01864927
16	0xbb898038	-0.004196193
17	0xbda91412	-0.08255781
18	0x3dc51c4d	0.096245386
19	0x3a9330a8	0.0011229711
20	0xbdcba402	-0.099433914
21	0x3c6e5257	0.014545999
22	0xbd97cf20	-0.07412553
23	0xbd6dc3c9	-0.058048043
24	0xbc939b86	-0.018018495
25	0x3cbe6e28	0.023245886
26	0xbd092366	-0.033481024
27	0xbc37e926	-0.0112250205
28	0xbb4a1697	-0.0030836219
29	0xbbfab3ef	-0.0076508443
30	0xbcbb41e7	-0.022858573
31	0x3cc4f8c6	0.024044406

static_variable_selection.single_variable_grns.encoder_length.gate_norm.add_norm.norm.weight f4 [16]
0	0x3f7d2b3a	0.98894083
1	0x3f6530da	0.89527667
2	0x3f885dea	1.065366
3	0x3f89f858	1.0778913
4	0x3f907d50	1.1288242
5	0x3f8278b2	1.0193083
6	0x3f78b002	0.97143567
7	0x3f8308fa	1.0237114
8	0x3f78d088	0.97193193
9	0x3f96794e	1.1755769
10	0x3f7930c3	0.9734003
11	0x3f7c38d6	0.98524225
12	0x3f6f00bc	0.93360496
13	0x3f7e7c50	0.99408436
14	0x3f7c321d	0.98513967
15	0x3f813092	1.0092947

static_variable_selection.single_variable_grns.encoder_length.gate_norm.add_norm.norm.bias f4 [16]
0	0xbd822bec	-0.06356034
1	0xbd84f5a4	-0.06492165
2	0xbdb3f389	-0.08786685
3	0x3d809816	0.06279008
4	0x3c597f46	0.013274973
5	0x3d87e37c	0.06635186
6	0x3d76304a	0.060104646
7	0xbb2e88dc	-0.0026631868
8	0xbc9cfb62	-0.019162837
9	0xbd1a43b2	-0.037662216
10	0xbd0bb682	-0.0341096
11	0xb7ac2b45	-2.0524147e-05
12	0xbd84eb0a	-0.06490143
13	0x3c9914ea	0.01868673
14	0xbc846319	-0.016160535
15	0x3d2eed4a	0.042706765

static_variable_selection.single_variable_grns.close_coinbase_center.resample_norm.mask f4 [16]
0	0xbc8b3c41	-0.016996505
1	0x3d8bce2c	0.068264335
2	0xbd179d0e	-0.037015013
3	0x3ba11656	0.0049159927
4	0xbc6ecd56	-0.014575323
5	0xbcd71a2e	-0.0262576
6	0x3ce4d958	0.027935669
7	0xbbfe724e	-0.007765091
8	0x3bbbdd2c	0.005733153
9	0xba977a20	-0.0011556782
10	0x3d762334	0.060092166
11	0xbce42e29	-0.027854042
12	0xbce60428	-0.028078154
13	0x3d295b77	0.041346993
14	0xbd9eae4c	-0.07748088
15	0xbc5789c8	-0.013155408

static_variable_selection.single_variable_grns.close_coinbase_center.resample_norm.norm.weight f4 [16]
0	0x3f800310	1.0000935
1	0x3f90423a	1.1270211
2	0x3f7ea7fd	0.9947508
3	0x3f7f73bb	0.99785966
4	0x3f81450c	1.0099196
5	0x3f7f26b2	0.9966842
6	0x3f86998b	1.0515608
7	0x3f80e625	1.0070235
8	0x3f7a3816	0.9774183
9	0x3f7f8d1e	0.998247
10	0x3f8a2179	1.0791465
11	0x3f7be88e	0.98401725
12	0x3f75a9e7	0.95962375
13	0x3f86de31	1.0536557
14	0x3f65b5ac	0.89730334
15	0x3f7b4b70	0.98161983

static_variable_selection.single_variable_grns.close_coinbase_center.resample_norm.norm.bias f4 [16]
0	0x3c27e526	0.010247504
1	0xbc4f292e	-0.012644095
2	0xbe0ee173	-0.1395319
3	0x3d4ef1bf	0.050523516
4	0x3d8cc9f8	0.0687446
5	0x3c63510a	0.013874302
6	0x3dd1a9d8	0.10237473
7	0x3cb56018	0.022140548
8	0xbdeade0a	-0.11468132
9	0xbd3a6a76	-0.045511685
10	0xbd9480b9	-0.072511144
11	0xbd8675b4	-0.06565419
12	0x3d9398ba	0.07206865
13	0xbdd1ca2c	-0.10243639
14	0x3de999b6	0.11406271
15	0x3cbdd126	0.023171019

static_variable_selection.single_variable_grns.close_coinbase_center.fc1.weight f4 [8, 8]
0	0xbf781678	-0.96909285
1	0xbe8c3729	-0.27385834
2	0xbf2a1c52	-0.66449463
3	0xbf33998e	-0.7015618
4	0x3e839db0	0.25706244
5	0x3ed64062	0.41845995
6	0x3eed14d9	0.46304968
7	0xbdfd9c30	-0.12383306
8	0xbec992a6	-0.39369696
9	0xbd47c9b4	-0.048776343
10	0xbf3fae22	-0.7487508
11	0x3e3138a5	0.17306764
12	0xbf5e821e	-0.86917293
13	0x3dfb0634	0.122570425
14	0x3e867a96	0.262654
15	0x3ce8b193	0.028404986
16	0xbe2bb998	-0.16770017
17	0x3d1e8b00	0.03870678
18	0xbf9e6b22	-1.2376444
19	0xbee2047b	-0.44144043
20	0xbe17f03d	-0.14837737
21	0x3ece9374	0.40346873
22	0x3e9d2054	0.30688727
23	0x3e77441b	0.24147074
24	0x3e950255	0.29103342
25	0x3ee38194	0.44434798
26	0x3f15a970	0.58461666
27	0xbd589c62	-0.052883513
28	0xbec447a4	-0.38335907
29	0xbe15ae66	-0.14617309
30	0x3ec74d43	0.38926134
31	0xbe7a23e0	-0.24427748
32	0x3df1d42d	0.118080474
33	0xbee3bce8	-0.44480062
34	0xbf1ad10a	-0.6047522
35	0xbd7633b0	-0.060107887
36	0xbf04dd7e	-0.5190047
37	0x3e4c49a4	0.19949967
38	0x3ce5a49f	0.028032599
39	0xbf3b13c2	-0.73077023
40	0xbef32842	-0.47491652
41	0x3f12ffe2	0.57421696
42	0x3f0ccb1c	0.5499742
43	0x3e183ba2	0.14866498
44	0x3e986944	0.2976781
45	0xbf00fa49	-0.50381905
46	0x3f1b580e	0.60681236
47	0xbed0bf14	-0.4077078
48	0xbe6eb276	-0.23310265
49	0xbf540f5e	-0.8283595
50	0xbf8e3e34	-1.1112733
51	0xbf07935d	-0.52959234
52	0xbdb911d5	-0.09036604
53	0x3e932a8e	0.28743404
54	0xbea50daa	-0.32236987
55	0xbf5297f2	-0.822631
56	0x3f1ad6b1	0.60483843
57	0xbf4cf7be	-0.80065525
58	0xbf8a78c8	-1.081811
59	0xbdd5b741	-0.104353435
60	0xbf69f860	-0.91394615
61	0xbde7a6c0	-0.11311102
62	0x3da7344c	0.08164272
63	0x3e12e52a	0.14345232

static_variable_selection.single_variable_grns.close_coinbase_center.fc1.bias f4 [8]
0	0x3cb50f98	0.022102162
1	0xbbdafbae	-0.0066828346
2	0xbbc52ded	-0.0060174377
3	0xbc5b48ae	-0.013384027
4	0xbe2abcaf	-0.1667354
5	0x3dc890d4	0.09793249
6	0xbd40ecec	-0.047100946
7	0xbe33a0e4	-0.17541844

static_variable_selection.single_variable_grns.close_coinbase_center.fc2.weight f4 [8, 8]
0	0x3e9cd410	0.3063054
1	0x3f759297	0.95926803
2	0xbe677f5d	-0.22607179
3	0xbedce872	-0.43146092
4	0xbd102d26	-0.035199307
5	0xbea6f636	-0.3260972
6	0xbcc1d086	-0.023659002
7	0x3f7eae9a	0.9948517
8	0x3ef39b6e	0.4757952
9	0x3e39c026	0.18139705
10	0xbe9e9308	-0.3097155
11	0xbe69d79a	-0.22836152
12	0xbc5d661a	-0.013513112
13	0xbf11a783	-0.5689623
14	0xbf192b54	-0.5983174
15	0xbe8547b4	-0.26031268
16	0xbe22f1da	-0.15912572
17	0xbf2a397c	-0.66493964
18	0x3ead3233	0.3382736
19	0xbd4fc1b6	-0.050721847
20	0x3f14b9f4	0.5809624
21	0xbc5e1e90	-0.013557091
22	0xbd0161f4	-0.031587556
23	0x3dafde94	0.08587375
24	0xbf061dce	-0.5238923
25	0xbf279414	-0.65460324
26	0x3de1ea84	0.110310584
27	0x3e4371f6	0.19086441
28	0xbef6cbc0	-0.48202324
29	0xbeaa131b	-0.332177
30	0xbf388b2c	-0.7208736
31	0x3e373040	0.178895
32	0xbeed857e	-0.4639091
33	0x3e893bda	0.26803476
34	0xbf111042	-0.5666543
35	0xbd95cd8b	-0.07314595
36	0x3e5ceef5	0.2157553
37	0xbddac891	-0.10682786
38	0xbdc410ac	-0.095734924
39	0x3dc05452	0.09391083
40	0xbe68c4ea	-0.22731367
41	0x3acecaa2	0.0015776942
42	0xbecb4a19	-0.3970497
43	0xbf13cc98	-0.5773406
44	0xbed09040	-0.40735054
45	0xbe6abe81	-0.22924234
46	0x3f22e7fc	0.6363523
47	0xbcc8e806	-0.0245247
48	0xbe0b3e90	-0.13598084
49	0x3e2a9516	0.16658434
50	0x3e9bfa8c	0.3046459
51	0x3e6464d2	0.22304085
52	0xbe07b138	-0.13251197
53	0x3f16728b	0.5876853
54	0x3dc92344	0.098211795
55	0xbf6e43f4	-0.9307244
56	0x3eb8a154	0.36060584
57	0x3ee08c7c	0.4385718
58	0x3f5aaabd	0.85416776
59	0x3f5ee57c	0.87068915
60	0x3ebe5d78	0.37180686
61	0xbf28fa4c	-0.6600692
62	0xbf04c51e	-0.51863277
63	0x3e9acc9e	0.30234236

static_variable_selection.single_variable_grns.close_coinbase_center.fc2.bias f4 [8]
0	0xbe17167b	-0.1475467
1	0x3df9a66e	0.12189947
2	0xbe2c5a14	-0.16831237
3	0x3ddbe14e	0.10736333
4	0xbdaf0ffa	-0.08547969
5	0x3d6e6fe2	0.05821217
6	0x3e060e87	0.13091479
7	0xbd681607	-0.056661632

static_variable_selection.single_variable_grns.close_coinbase_center.gate_norm.glu.fc.weight f4 [32, 8]
0	0xbc4f8f08	-0.012668379
1	0xbe293660	-0.16524649
2	0x3e07077e	0.13186452
3	0xbbf15d64	-0.0073658694
4	0xbee27256	-0.44227856
5	0xbe9a878d	-0.30181542
6	0x3e3f373c	0.18673414
7	0x3c9720bc	0.018448226
8	0xbe7d4b06	-0.2473565
9	0x3d4d0300	0.05005169
10	0xbe2db53c	-0.16963667
11	0x3edc273c	0.42998683
12	0x3e6479ab	0.22312038
13	0xbe00a79c	-0.12563938
14	0xbd02669a	-0.03183613
15	0xbdc1c444	-0.09461263
16	0xbd19ebae	-0.037578277
17	0xbebf0b9a	-0.3731354
18	0x3ddd903d	0.10818527
19	0xbe28d7d7	-0.16488586
20	0x3e968741	0.29400066
21	0xbe7facf1	-0.24968316
22	0xbe6efcb9	-0.23338594
23	0xbdfbe5fa	-0.12299724
24	0xb92b90d4	-0.00016361783
25	0xbe86d4a6	-0.26334113
26	0xbea5d1dc	-0.32386672
27	0x3ea6b88a	0.32562667
28	0xbe634d69	-0.22197498
29	0x3e389522	0.1802564
30	0xbe8e371d	-0.27776423
31	0x3e582e1f	0.21111344
32	0x3e77839c	0.24171299
33	0xbe064f53	-0.13116197
34	0xbdd65a50	-0.104664445
35	0x3e3d2386	0.18470582
36	0xbe948c90	-0.2901349
37	0x3e666462	0.2249923
38	0x3eb40d03	0.35166177
39	0xbdf37fe6	-0.11889629
40	0x3e1f3c32	0.15550306
41	0xbe1e5c89	-0.15464987
42	0xbe986518	-0.29764628
43	0x38ac602c	8.2195125e-05
44	0x3e88cb67	0.26717684
45	0x3e8e131a	0.27748948
46	0x3e147922	0.14499334
47	0xbe1f17ee	-0.15536472
48	0x3dca6ac6	0.09883647
49	0xbb32ec9e	-0.002730168
50	0xbe7fce6a	-0.24981084
51	0x3d5934ac	0.053028747
52	0x3e4ecd84	0.20195585
53	0xbe526894	-0.20547706
54	0xbe8f8206	-0.28028888
55	0xbd30d756	-0.04317411
56	0x3c1829f6	0.009287348
57	0xbc0e9446	-0.008702343
58	0x3e3b15c8	0.18270028
59	0x3ea097c7	0.31365797
60	0x3d6615a5	0.056172986
61	0x3e87f402	0.2655335
62	0xbd356fea	-0.044296183
63	0xbe81797e	-0.25288004
64	0x3e68946a	0.22712865
65	0xbb84be0f	-0.004050977
66	0x3ebd94ae	0.37027496
67	0x3cb4193e	0.021984693
68	0x3eb5da20	0.3551798
69	0xbe397b6e	-0.18113491
70	0x3d70dd1a	0.05880461
71	0x3e4370ff	0.19086073
72	0x3cf9e3be	0.030504104
73	0x3c91d194	0.01780013
74	0x3e324914	0.1741069
75	0x3e77e364	0.24207836
76	0x3ce10ea0	0.027472794
77	0xbd048ea4	-0.032362595
78	0xbe2b140e	-0.16706869
79	0xbe4f36fe	-0.20235822
80	0x3ea2fd84	0.31834042
81	0xbe8a2480	-0.26980972
82	0x3e44c9d6	0.1921762
83	0x3db54dbe	0.08852719
84	0x3e35f236	0.17768177
85	0xbe4bc611	-0.19899775
86	0x3c79d7e7	0.015249229
87	0x3e8ea76b	0.27862105
88	0x3e61b0f8	0.22040164
89	0x3e1d35b4	0.15352517
90	0x3e924be6	0.2857353
91	0xbdcbf5c0	-0.099589825
92	0x3d816d6b	0.06319698
93	0x3d8894c1	0.066689976
94	0xbe3285fc	-0.17433923
95	0x3e7a5f6a	0.2445046
96	0x3d9edd66	0.07757072
97	0xbeb1109c	-0.34582984
98	0xbe4625e8	-0.19350398
99	0x3e7637e3	0.24044757
100	0xbda8f361	-0.08249546
101	0xbdfa59fc	-0.122241944
102	0xbe308d9c	-0.1724152
103	0xbdb8a159	-0.090151496
104	0x3dad1d2c	0.0845283
105	0xbe69a884	-0.2281819
106	0x3e84d3ae	0.2594275
107	0x3e86e632	0.263475
108	0xbe3c552a	-0.18391863
109	0xbd8ac659	-0.06776113
110	0xbc35187a	-0.011053199
111	0xbd04f168	-0.032456785
112	0xbec3f428	-0.38272214
113	0x3dd205ec	0.10255036
114	0x3de780ff	0.11303901
115	0xbd5b4588	-0.053533107
116	0xbea374b0	-0.31924963
117	0xbf001f88	-0.5004811
118	0x3eff0228	0.49806333
119	0xbe18daea	-0.14927259
120	0x3e15dc1a	0.14634743
121	0x3e1b87ce	0.15188524
122	0x3d9a47aa	0.075332
123	0x3e288539	0.1645707
124	0x3e0e9b70	0.13926482
125	0x3e8a5efe	0.27025598
126	0x3e03a00e	0.12854025
127	0x3e0d0a5b	0.13773482
128	0xbe62a211	-0.22132136
129	0xbe0c1e0c	-0.13683337
130	0xbe985b60	-0.29757214
131	0x3d62208e	0.055206828
132	0xbc465cbe	-0.012107072
133	0x3ac5651b	0.0015060039
134	0xbe0530b0	-0.13006854
135	0x3e93341e	0.287507
136	0x3e6b549f	0.22981499
137	0xbea86fb2	-0.32897717
138	0x3e924fbc	0.28576458
139	0xbe03b5e2	-0.12862352
140	0x3e88b489	0.26700237
141	0x3e7f0286	0.24903306
142	0x3e6e74fa	0.2328681
143	0xbe3a3b72	-0.18186739
144	0x3dceb486	0.10093026
145	0x3e0e8408	0.13917553
146	0x3ce0d25c	0.027444057
147	0xbd0ac154	-0.03387578
148	0x3eaeaaaa	0.3411458
149	0x3d702c3c	0.058635935
150	0xbe3ffdbf	-0.1874914
151	0xbdca7f35	-0.09887544
152	0x3c80d7be	0.015727874
153	0xbe840c74	-0.2579075
154	0xbe8d2f5b	-0.27575192
155	0xbe854618	-0.2603004
156	0x3e4dcd5a	0.20097867
157	0x3c4c4764	0.012468193
158	0x3e81af6e	0.25329155
159	0xbea586ba	-0.3232935
160	0xbe331c2a	-0.17491212
161	0xbebe485d	-0.37164584
162	0xbde6b053	-0.112641
163	0xbd96b7f6	-0.073593065
164	0x3dfe2f32	0.124113455
165	0xbe213651	-0.15743376
166	0xbd856600	-0.065135956
167	0xbe976aa0	-0.29573536
168	0xbd5041e1	-0.050844077
169	0xbe749d64	-0.23888165
170	0x3e0b8484	0.1362477
171	0x3ec5b83f	0.3861713
172	0xbe711ce1	-0.23546173
173	0xbea16662	-0.31523424
174	0x3e3315de	0.1748881
175	0x3da180f0	0.07885921
176	0x3ee74428	0.45169187
177	0x3e3a035a	0.18165341
178	0x3da29758	0.07939023
179	0xbe78221a	-0.24231759
180	0xbc8ffe45	-0.0175773
181	0x3e9af940	0.30268288
182	0xbe9b42f2	-0.30324513
183	0xbeaca81d	-0.3372201
184	0x3b98d923	0.0046645566
185	0xbe4186a5	-0.18899019
186	0x3cbcdb66	0.023053836
187	0x3eba247e	0.36355966
188	0x3eaf27fe	0.342102
189	0x3d226306	0.039645217
190	0x3edc67c0	0.43047905
191	0x3d9dffdc	0.07714817
192	0xbe9c4c1c	-0.30526817
193	0xbe263298	-0.16230237
194	0x3cbdef1e	0.023185309
195	0x3bfe876e	0.0077676093
196	0xbe683485	-0.22676285
197	0x3ea6be7c	0.32567203
198	0xbeacf1f6	-0.33778352
199	0xbc659f7a	-0.014015073
200	0xbe8e591f	-0.2780237
201	0x3edfff92	0.43749672
202	0x3d1996c6	0.037497304
203	0xbdff4cd0	-0.12465823
204	0xbebf52b4	-0.37367785
205	0xbd05db2a	-0.032679714
206	0xbe4601ce	-0.19336626
207	0xbe3bd18a	-0.18341652
208	0x3dd94e2a	0.10610612
209	0x3df07250	0.117405534
210	0xbe85dd3f	-0.2614536
211	0xbc252c00	-0.010081291
212	0x3e8298ce	0.25507206
213	0x3d674a73	0.056467485
214	0xbea13c3a	-0.31491262
215	0x3ecc3916	0.39887303
216	0x3da9fea2	0.083005205
217	0x3dd93853	0.10606446
218	0xbe16d57b	-0.14729874
219	0xbea9710f	-0.3309407
220	0xbe35b6ef	-0.17745565
221	0x3ca98b36	0.020696264
222	0xbdcc4162	-0.09973408
223	0x3da00c12	0.07814802
224	0xbe858ad9	-0.26082495
225	0xbe8763bc	-0.2644328
226	0x3e003bfc	0.12522882
227	0xbe0c69be	-0.13712212
228	0x3ebb119c	0.36536872
229	0xbe5b6e1e	-0.21428725
230	0x3e661526	0.22469005
231	0xbe9ba078	-0.30395865
232	0x3eabb019	0.3353279
233	0x3e959430	0.2921462
234	0x3e8f13df	0.27944848
235	0x3e626a97	0.22110973
236	0xbe1aace7	-0.1510502
237	0xbec987ee	-0.3936152
238	0x3e1eb282	0.15497783
239	0xbe317da0	-0.17333078
240	0xbdcc2fc6	-0.099700496
241	0x3e621bc4	0.22080904
242	0x3db62432	0.088936225
243	0xbe91ed79	-0.2850149
244	0xbe81e6ba	-0.25371343
245	0xbef03c5e	-0.46921057
246	0x3e9db195	0.30799547
247	0xbe851458	-0.25992084
248	0x3e9f6c5b	0.31137356
249	0xbe17dbd2	-0.14829949
250	0xbe2951a4	-0.1653505
251	0x3e5d3cff	0.216053
252	0xbe96ef39	-0.29479387
253	0xbe90e011	-0.2829595
254	0xbebe265e	-0.37138647
255	0xbea7612a	-0.32691318

static_variable_selection.single_variable_grns.close_coinbase_center.gate_norm.glu.fc.bias f4 [32]
0	0x3bc5e6ec	0.006039491
1	0x3ba1b9be	0.0049354723
2	0xbdfd2a47	-0.123615794
3	0xba745e4e	-0.0009321914
4	0x3da0d2f8	0.07852739
5	0x3c44d3f4	0.012013424
6	0x3df83479	0.12119383
7	0xbce49b50	-0.02790609
8	0xbdc87c47	-0.09789329
9	0x3c76a6ac	0.015054386
10	0xbc80634c	-0.015672348
11	0xbd9299ee	-0.07158266
12	0x3d19ef85	0.03758194
13	0xbe0ef8b4	-0.1396206
14	0x3e180265	0.14844663
15	0x3d36365a	0.044485427
16	0x3c9b18e4	0.018932767
17	0x3c1f2210	0.009712711
18	0x3d62f6b0	0.05541104
19	0x3ce1c8f8	0.02756165
20	0xbbd0437a	-0.0063557
21	0xbc859514	-0.016306438
22	0xbd104754	-0.035224274
23	0xbbc8db62	-0.006129668
24	0x3da1d9ea	0.07902892
25	0xbd9269a0	-0.071490526
26	0x3d0e7168	0.03477612
27	0xbcd3abbb	-0.025838723
28	0x3d0bb605	0.034109134
29	0xbd28fb4d	-0.041255284
30	0xbbbd353b	-0.005774168
31	0xbce09ebe	-0.027419444

static_variable_selection.single_variable_grns.close_coinbase_center.gate_norm.add_norm.norm.weight f4 [16]
0	0x3f7b05be	0.98055637
1	0x3f893c74	1.0721574
2	0x3f688d70	0.90840816
3	0x3f738881	0.95130163
4	0x3f68614e	0.90773475
5	0x3f72bc08	0.9481816
6	0x3f847960	1.0349541
7	0x3f7f5846	0.9974407
8	0x3f7913ba	0.97295725
9	0x3f7a4780	0.9776535
10	0x3f7fe77c	0.9996259
11	0x3f801c08	1.0008554
12	0x3f7e0c20	0.9923725
13	0x3f81486a	1.0100224
14	0x3f8c7ba2	1.097523
15	0x3f710ad3	0.9415714

static_variable_selection.single_variable_grns.close_coinbase_center.gate_norm.add_norm.norm.bias f4 [16]
0	0xbb05eead	-0.0020436451
1	0xbda85d9c	-0.082209796
2	0xbdc53cd0	-0.0963074
3	0x3cf6dc42	0.030134324
4	0xbb6ca4d0	-0.0036108978
5	0x3cac9d1b	0.021071007
6	0x3c85d95c	0.016338997
7	0xbd009670	-0.03139347
8	0xbd6031b2	-0.054734893
9	0xbd0c1728	-0.03420177
10	0xbd851164	-0.064974576
11	0xbcd2bc39	-0.025724517
12	0xbb09307a	-0.0020933435
13	0xbcd23d85	-0.0256641
14	0x3c2e6a2a	0.010645429
15	0xbc124c25	-0.008929287

static_variable_selection.single_variable_grns.close_coinbase_scale.resample_norm.mask f4 [16]
0	0xbd9a4a2c	-0.075336784
1	0xba8aba2a	-0.0010584046
2	0x3e012f44	0.12615687
3	0xbd92740a	-0.07151039
4	0xbd27305c	-0.040817603
5	0xbcb28562	-0.021792118
6	0xbd8b1ed3	-0.06792989
7	0x3d0a5be6	0.033779047
8	0x3e132cb0	0.14372516
9	0xbe241981	-0.16025354
10	0x3cf2aa2f	0.029622165
11	0x3c5f4526	0.013627326
12	0x3d618838	0.05506155
13	0xbd1d52ec	-0.03840916
14	0xbd1ffd13	-0.03905971
15	0x3ce4d742	0.027934674

static_variable_selection.single_variable_grns.close_coinbase_scale.resample_norm.norm.weight f4 [16]
0	0x3f5f1781	0.8714524
1	0x3f7f252a	0.9966608
2	0x3f90bd86	1.1307838
3	0x3f61d683	0.88217944
4	0x3f686d88	0.9079213
5	0x3f6e58a0	0.9310398
6	0x3f66a043	0.9008829
7	0x3f85cb7c	1.0452724
8	0x3f9335e8	1.1500826
9	0x3f488a9b	0.78336495
10	0x3f847f90	1.0351429
11	0x3f826d9a	1.0189698
12	0x3f8aa12e	1.0830438
13	0x3f70b4c1	0.9402581
14	0x3f70f160	0.9411831
15	0x3f85af4e	1.0444124

static_variable_selection.single_variable_grns.close_coinbase_scale.resample_norm.norm.bias f4 [16]
0	0xbd92701e	-0.07150291
1	0xbcbf11ea	-0.023323972
2	0xbe3b3d84	-0.18285185
3	0x3db6c61a	0.089245036
4	0x3d72a6c4	0.05924107
5	0xbc469c64	-0.012122247
6	0x3e3d5b38	0.18491828
7	0x3d8e8664	0.06959227
8	0x3d2ed876	0.042686902
9	0xbdecdf5b	-0.11566039
10	0xbd40b75c	-0.047049865
11	0xbdf54a56	-0.11977069
12	0x3dc5793a	0.09642263
13	0xbdd69746	-0.10478072
14	0x3e0319ba	0.12802783
15	0x3d8f522c	0.06998095

static_variable_selection.single_variable_grns.close_coinbase_scale.fc1.weight f4 [8, 8]
0	0xbe2120de	-0.15735194
1	0xbee2ea1a	-0.4431923
2	0xbe263a88	-0.16233265
3	0xbe14d2d3	-0.14533548
4	0x3db7f874	0.089829355
5	0x3f6b4983	0.91909045
6	0xbea4dd2c	-0.3219999
7	0xbf01c04a	-0.50684035
8	0xbe3cc3d2	-0.18434075
9	0xbf02b114	-0.5105145
10	0x3e507af0	0.20359397
11	0x3f204005	0.62597686
12	0x3e8a26be	0.26982683
13	0x3faed69b	1.3659242
14	0x3db635be	0.08896969
15	0xbf100320	-0.5625477
16	0xbf7ed698	-0.99546194
17	0x3edca074	0.43091166
18	0xbe6eb686	-0.23311815
19	0xbedca614	-0.43095458
20	0xbf0f9cf2	-0.56098855
21	0xbeb9f572	-0.36320072
22	0x3f0dc4bf	0.55378336
23	0x3f021628	0.5081506
24	0xbecdd20c	-0.40199316
25	0x3e8fb167	0.28065035
26	0x3e8c1674	0.2736088
27	0xbe4c2f42	-0.19939902
28	0x3eadaa3a	0.33918935
29	0x3e9014fa	0.28141004
30	0xbca2453f	-0.01980841
31	0xbef55d1b	-0.47922596
32	0xbf03c436	-0.5147127
33	0xbeb39960	-0.35077953
34	0x3e532de7	0.20622979
35	0xbe597562	-0.21236184
36	0x3e0b4f98	0.13604581
37	0x3ef06910	0.46955156
38	0xbf4cd42c	-0.8001125
39	0xbf703c3b	-0.93841904
40	0xbdf3b70b	-0.11900147
41	0xbfac60de	-1.3467062
42	0x3f1d8f1c	0.6154649
43	0xbea57da8	-0.3232243
44	0x3da81566	0.082072064
45	0x3e9907cc	0.2988876
46	0xbf468046	-0.7753948
47	0x3efc637a	0.49294645
48	0xbe5fbfb9	-0.2185048
49	0xbd569de6	-0.052396677
50	0x3cdfff9e	0.027343567
51	0x3ec3d81f	0.38250825
52	0xbf58d99a	-0.84707034
53	0xbfa3fe77	-1.2812032
54	0xbe16e417	-0.14735447
55	0xbe410d82	-0.18852809
56	0x3f04564f	0.51694196
57	0x3f098365	0.5371612
58	0x3d5be944	0.053689256
59	0xbebaf79a	-0.3651703
60	0xbe0a6536	-0.13515171
61	0x3e7a511f	0.24445008
62	0x3ea69102	0.32532507
63	0x3e40eaf5	0.18839629

static_variable_selection.single_variable_grns.close_coinbase_scale.fc1.bias f4 [8]
0	0x3d531e6d	0.05154269
1	0xbbc20520	-0.005921021
2	0xbd4fb2b6	-0.05070754
3	0xbd837222	-0.064182535
4	0xbda93c96	-0.08263509
5	0x3e0d302f	0.13787912
6	0x3cbb9434	0.022897817
7	0xbc233998	-0.009962462

static_variable_selection.single_variable_grns.close_coinbase_scale.fc2.weight f4 [8, 8]
0	0x3f1f2585	0.62166625
1	0xbe0e8a3c	-0.1391992
2	0x3f8a1ccd	1.0790039
3	0xbd87bf49	-0.066282816
4	0x3d0c6b76	0.03428217
5	0xbebdfaba	-0.37105352
6	0xbdd949a6	-0.106097504
7	0xbf80d9b3	-1.0066437
8	0xbe23b750	-0.15987897
9	0xbc89cd0a	-0.016821403
10	0x3fc2a287	1.520585
11	0x3f3d246a	0.7388369
12	0xbf0a865a	-0.54111254
13	0x3f20dded	0.6283863
14	0xbf662f2a	-0.89915717
15	0x3dd0522c	0.10171923
16	0x3e4e9928	0.20175612
17	0x3f4f5c9a	0.81000674
18	0xbeb6b735	-0.3568665
19	0xbeed4700	-0.4634323
20	0xbf27b25e	-0.6550654
21	0x3f4cec74	0.800483
22	0x3f0841e8	0.53225565
23	0x3ed3d262	0.41371447
24	0xbf3d14ba	-0.7385975
25	0x3ec7c15c	0.3901471
26	0xbf1fac04	-0.6237185
27	0x3eeecbdc	0.46639907
28	0xbe9fa370	-0.3117938
29	0x3dec37b0	0.11534059
30	0xbe3848b4	-0.17996484
31	0xbe6e79d5	-0.23288663
32	0x3f82bbb4	1.0213532
33	0xbe6d008e	-0.23144743
34	0x3f5a4fa8	0.85277796
35	0xbe80ad16	-0.25132054
36	0xbeec1fd7	-0.46118042
37	0x3e739f3e	0.23791215
38	0xbdc1afb7	-0.09457343
39	0xbe301cc7	-0.17198478
40	0x3eba50ca	0.36389762
41	0xbd865fac	-0.06561217
42	0x3e232112	0.15930584
43	0xbef81b5a	-0.48458368
44	0xbe242ede	-0.16033503
45	0x3ebb4496	0.36575764
46	0x3f22d03d	0.63598996
47	0x3da6506a	0.081208065
48	0x3ec3110c	0.38098943
49	0x3ea8553c	0.3287753
50	0x3f0b88a6	0.54505384
51	0xbdb60482	-0.088875785
52	0x3f51acb8	0.8190417
53	0xbe448fdd	-0.19195504
54	0xbedc1490	-0.42984438
55	0x3f132625	0.5748008
56	0xbdb75bb4	-0.08953038
57	0x3eb73194	0.35780013
58	0xbee63c4f	-0.44967887
59	0xbed39d06	-0.41330737
60	0xbf2422e4	-0.6411574
61	0x3de2f301	0.110815056
62	0x3ecbee5f	0.398303
63	0xbe297bae	-0.16551086

static_variable_selection.single_variable_grns.close_coinbase_scale.fc2.bias f4 [8]
0	0xbce92d62	-0.028464023
1	0x3d034bd0	0.032054722
2	0xbada0cdd	-0.0016635914
3	0x3ca4a15e	0.020096477
4	0x3d6f6f0a	0.058455504
5	0x3def130e	0.11673556
6	0xbd935bfc	-0.07195279
7	0x3ddf03d4	0.10889402

static_variable_selection.single_variable_grns.close_coinbase_scale.gate_norm.glu.fc.weight f4 [32, 8]
0	0xbdaa4aa5	-0.083150186
1	0x3e28f75e	0.16500613
2	0xbed50dce	-0.41612095
3	0x3e89f410	0.26944017
4	0xbeac1ccc	-0.3361572
5	0xbe515d8a	-0.20445839
6	0x3e87a666	0.2649414
7	0x3e354f54	0.17706043
8	0xbeb87cb9	-0.36032656
9	0x3e9e5a69	0.30928352
10	0x3dce97d5	0.100875534
11	0x3e5bbf96	0.21459803
12	0x3dbc3064	0.09188917
13	0x3b17eeb5	0.0023183052
14	0xbea8a9d0	-0.32942057
15	0x3d30e4e6	0.043187045
16	0x3e1d3a63	0.15354304
17	0xbe5077ac	-0.20358151
18	0x3e1ad28a	0.15119377
19	0x3e417d4e	0.18895456
20	0xbd93c9d9	-0.07216234
21	0xbec03ac0	-0.37544823
22	0x3e717207	0.23578654
23	0x3cdaade6	0.02669425
24	0x3e990904	0.2988969
25	0xbd0cde61	-0.034391765
26	0x3ecf309c	0.40466774
27	0xbe8b1ae1	-0.27168944
28	0x3c48a595	0.012246509
29	0x3cd8cbd9	0.02646439
30	0xbe9162a6	-0.28395575
31	0xbc5c53e8	-0.013447739
32	0xbe1bf5b1	-0.15230443
33	0xbe9fce3c	-0.31212032
34	0x3de95936	0.11393969
35	0x3ea2c69a	0.31792146
36	0x3ec7ebc2	0.39047056
37	0x3e61996c	0.22031182
38	0xbd559a36	-0.05214902
39	0xbe274404	-0.1633454
40	0x3d6cf142	0.05784727
41	0x3cfdf8e2	0.031002466
42	0x3ebbfd90	0.3671689
43	0x3df5f6ec	0.12009987
44	0xbeb32652	-0.34990174
45	0x3df44586	0.11927323
46	0x3e031f46	0.12804899
47	0x3d3ad651	0.045614544
48	0xbeb1bd16	-0.34714574
49	0xbeed97a4	-0.46404755
50	0xbe32a048	-0.17443955
51	0x3cc38c10	0.023870498
52	0xbead1572	-0.33805424
53	0x3e82b6e2	0.25530154
54	0xbe3447de	-0.1760554
55	0x3e97b04f	0.296267
56	0x3e11737c	0.1420421
57	0xbe89dd28	-0.2692654
58	0xbd84885e	-0.064713225
59	0x3db97bca	0.09056814
60	0xbe0b3b2e	-0.13596794
61	0xbea6b0a9	-0.32556656
62	0x3d3159e2	0.04329861
63	0x3e34b11b	0.17645685
64	0x3e5fcb8a	0.21854988
65	0x3e461a82	0.1934605
66	0x3e573516	0.21016344
67	0x3e1eecba	0.15519992
68	0x3e2383fa	0.15968314
69	0x3e9a58dd	0.30145922
70	0x3e10055f	0.14064549
71	0x3e267f4e	0.162595
72	0xb9db9223	-0.00041879815
73	0xbe21b9a0	-0.15793467
74	0xbd45602e	-0.048187427
75	0xbe0327bd	-0.12808128
76	0xbea5fa16	-0.32417363
77	0xbe7ebcc0	-0.2487669
78	0x3e7eedfc	0.24895471
79	0xbdf48516	-0.11939447
80	0x3d10661c	0.03525363
81	0x3e757cd6	0.23973402
82	0x3e059d2e	0.1304824
83	0x3ed11f70	0.40844297
84	0x3ea8d11a	0.32972032
85	0xbdcb6548	-0.09931427
86	0xbedfc90f	-0.43708083
87	0xbe56e631	-0.20986249
88	0x3eafebaa	0.34359485
89	0xbdee0903	-0.116228126
90	0xbec90b54	-0.39266455
91	0xbcb871a6	-0.02251513
92	0xbe0d6d3d	-0.13811202
93	0x3eb963b6	0.36208886
94	0x3e349b64	0.17637402
95	0x3e96a62c	0.29423654
96	0x3e9d333d	0.30703154
97	0x3db45350	0.08804953
98	0xbe251333	-0.16120605
99	0x3e872bd2	0.2640062
100	0xbe939aa2	-0.28828913
101	0x3d36dcde	0.04464423
102	0x3e74f53c	0.23921674
103	0x3e4352f8	0.19074619
104	0x3ea8065e	0.32817358
105	0xbe1e4ded	-0.15459414
106	0xbc88d9ea	-0.016705472
107	0xbecb0908	-0.39655328
108	0xbe61a468	-0.22035372
109	0xbdfc01ca	-0.12305029
110	0x3d9c0785	0.07618622
111	0xbec1b974	-0.37836802
112	0x3e6fd288	0.23420155
113	0x3e71813b	0.23584454
114	0x3d406da4	0.04697956
115	0xbe9b4600	-0.30326843
116	0x3e9a17f4	0.300964
117	0xbd8fcc82	-0.07021429
118	0x3e68b429	0.22724976
119	0x3e0c892c	0.13724202
120	0xbcc818ec	-0.024425946
121	0xbe369e66	-0.17833862
122	0x3d8dd472	0.06925286
123	0xbe470b9a	-0.1943802
124	0xbe352b60	-0.17692327
125	0x3e8fc4fe	0.2807998
126	0x3e450e84	0.19243819
127	0xbe91fb52	-0.28512055
128	0xbec4cac4	-0.38435948
129	0x3e3e3ba9	0.18577446
130	0xbe2b5ace	-0.16733858
131	0xbe0e4832	-0.13894728
132	0xbe106f4e	-0.1410496
133	0xbd5ace68	-0.0534195
134	0x3df3d98a	0.11906727
135	0xbd00516c	-0.03132765
136	0xbe41e7a1	-0.18936016
137	0xbdeb83e6	-0.11499767
138	0xbea4380a	-0.32074004
139	0x3ebb547d	0.36587897
140	0x3daea68e	0.085278615
141	0xbe880104	-0.26563275
142	0xbea4d57c	-0.32194126
143	0x3ebd37c1	0.369566
144	0xbe0c4cbe	-0.1370115
145	0x3d5e5ec4	0.054289594
146	0x3e21b7fe	0.15792844
147	0x3da99744	0.08280805
148	0xbe2c66c9	-0.16836084
149	0xbe9297e4	-0.28631508
150	0x3e1de025	0.15417536
151	0x3e53f436	0.20698628
152	0xbeae8064	-0.3408233
153	0xbe824370	-0.25442076
154	0xbe226d2e	-0.15861961
155	0x3e640a1c	0.22269481
156	0xbe14cd56	-0.14531454
157	0xbd5a10fb	-0.05323885
158	0xbd5cbcde	-0.053891055
159	0xbe392412	-0.18080166
160	0xbe57de41	-0.21080877
161	0xbe86627a	-0.26247007
162	0xbdca62ca	-0.09882124
163	0xbcba57f6	-0.022747021
164	0x3e563ce0	0.2092166
165	0x3e2fc74b	0.17165868
166	0x3d8dff14	0.06933418
167	0x3e2983f4	0.16554242
168	0xbe714ec2	-0.235652
169	0xbe1e165b	-0.15438215
170	0x3b992c84	0.004674496
171	0x3e7822ea	0.24232069
172	0xbe5d3894	-0.21603614
173	0xbe073817	-0.1320499
174	0xbe431814	-0.19052154
175	0xbe731743	-0.23739342
176	0x3e9dc8c6	0.3081724
177	0x3e978678	0.2959478
178	0xbe91d2b7	-0.28481075
179	0x3e001b22	0.1251035
180	0xbebbe43c	-0.36697567
181	0x3d6fe26c	0.058565542
182	0xbe8101e1	-0.25196746
183	0xbe39a798	-0.18130338
184	0xbe6b0284	-0.22950178
185	0xbe177e71	-0.14794327
186	0x3e4f07f4	0.20217878
187	0x3e0933a2	0.13398603
188	0xbd23c463	-0.03998221
189	0x3ebd27fc	0.36944568
190	0x3d35672c	0.044287845
191	0xbe8f4600	-0.27983093
192	0xbe0789cc	-0.13236159
193	0xbe160176	-0.14648995
194	0x3e11779e	0.14205787
195	0xbdaca376	-0.08429615
196	0x3ca9f928	0.02074869
197	0xbe3190bb	-0.17340367
198	0xbeae5db3	-0.34055862
199	0x3e923e2c	0.28563058
200	0x3ca3d276	0.019997817
201	0xbe53fe40	-0.20702457
202	0xbd8d346e	-0.06894766
203	0x3e912ea2	0.2835589
204	0x3eb1ac09	0.34701565
205	0xbe0b6d48	-0.13615906
206	0x3e949da3	0.29026517
207	0x3ba41ffb	0.005008695
208	0x3d6cb901	0.05779362
209	0xbe678ba9	-0.2261187
210	0x3e8f98d4	0.28046286
211	0x3e4f34a0	0.20234919
212	0x3d9c6852	0.07637085
213	0x3e480290	0.19532228
214	0xbe5be80a	-0.21475235
215	0x3db40998	0.08790892
216	0x3e8541a2	0.26026636
217	0x3e2cb58c	0.1686613
218	0x3cddedc2	0.02709091
219	0xbe5798a0	-0.21054316
220	0x3e708e7f	0.23491858
221	0x3e9cf016	0.3065192
222	0xbe55b767	-0.20870744
223	0x3e9bb01a	0.30407792
224	0x3d740d42	0.059582956
225	0x3eb9ee42	0.3631459
226	0x3e938dc0	0.28819084
227	0x3d1f547c	0.03889893
228	0x3eb2506c	0.34826982
229	0xbcca4ad8	-0.024693891
230	0xbeb6c348	-0.35695863
231	0xbe4e0536	-0.20119175
232	0x3e3547ba	0.17703143
233	0x3e9503a1	0.2910433
234	0x3c9442ce	0.018098261
235	0xbe9da123	-0.30787
236	0xbead17bc	-0.3380717
237	0x3e9ebca2	0.3100329
238	0xbe807c9e	-0.25095075
239	0x3e9f6a94	0.31136
240	0x3e665c3b	0.2249612
241	0xbeb2c28b	-0.3491405
242	0x3ea5852b	0.32328162
243	0xbec1f914	-0.37885344
244	0xbe4f8954	-0.2026723
245	0x3e325b28	0.17417586
246	0xbe7b58ae	-0.24545547
247	0xbeb9d39e	-0.36294264
248	0xbeb52870	-0.35382414
249	0x3e8c5595	0.27409044
250	0x3e7106ac	0.23537701
251	0x3c469344	0.012120072
252	0x3da7c56a	0.081919506
253	0xbe993e38	-0.29930282
254	0x3e6648ce	0.2248871
255	0x3e6d5cc2	0.23179916

static_variable_selection.single_variable_grns.close_coinbase_scale.gate_norm.glu.fc.bias f4 [32]
0	0xbd02e512	-0.03195674
1	0xbc929e69	-0.017897801
2	0xbe22d29e	-0.15900657
3	0x3d9ade26	0.07561903
4	0x3d2e74a8	0.04259172
5	0x3cb2fe8c	0.021849893
6	0x3e0998e9	0.13437237
7	0x3d68f29a	0.056871988
8	0x3d9714e2	0.0737703
9	0xbe02447e	-0.1272144
10	0xbb95c992	-0.004571148
11	0xbdb5c3ba	-0.088752225
12	0x3dd60f39	0.10452122
13	0xbd8e09d6	-0.0693547
14	0x3ddf9767	0.109175496
15	0x3d779ca6	0.060452126
16	0xbc1861e4	-0.009300683
17	0x3c7eaa13	0.015543479
18	0xbce96d3c	-0.02849447
19	0x3d385810	0.045005858
20	0x3c39a878	0.01133167
21	0xbba7eab2	-0.0051244134
22	0x3bba5c04	0.0056872386
23	0x3b12cbfa	0.0022399412
24	0x3c3691e6	0.011143183
25	0x3d2c55a1	0.04207385
26	0x3d4363ff	0.047702786
27	0xb847ed0c	-4.7666064e-05
28	0xbd0ebf42	-0.034850366
29	0x3bd7974c	0.0065793153
30	0x3d0313ee	0.03200143
31	0xbcbe20f2	-0.023209069
