JJW/lightning_logs/lightning_logs/version_0/checkpoints/epoch=29-step=510.ckpt (torch, 654149 bytes, 1024 tensors)

input_embeddings.embeddings.month.weight f4 [12, 6]
-0.73459816 -0.9991215 0.21077348 -0.84157586 -0.13925096 1.0820866 -0.56947744 -0.08409122
1.0558262 -0.6245862 -1.4010371 1.6320544 2.0327487 -1.5874109 0.17514896 -0.44065338
-0.60881615 -0.5946561 -1.8893167 -1.207155 0.8682065 1.7815087 0.4729405 0.29419002
0.057536315 0.94209564 0.3832018 2.8679857 -0.74585474 0.7308229 1.2610643 0.58909214
-2.1085649 0.76557815 1.2352474 -1.1257033 1.6620857 0.43434012 0.4388203 -0.121268004
1.1007502 0.28434378 1.1331131 -1.582313 1.4051881 -1.2527705 -1.1893704 -0.84907997
-0.9235449 0.21180597 1.4162372 -1.0416167 -0.27351642 -1.6972368 0.18252283 2.7636957
2.3142035 0.73390067 -0.458979 1.048975 -0.32618815 -0.18335272 0.75092065 -0.6501436
-0.2212837 -0.59734106 -0.76769054 0.42387575 1.1285359 -1.1366968 1.4409168 -0.6090876
00000000: a00e 3cbf 6dc6 7fbf 01d5 573e 8471 57bf
00000010: ce97 0ebe d081 8a3f 46c9 11bf 0438 acbd
00000020: 5025 873f e2e4 1fbf 2f55 b3bf 29e7 d03f
00000030: 8e18 0240 4830 cbbf 405a 333e 529d e1be
00000040: 60db 1bbf 623b 18bf 21d5 f1bf 0e84 9abf
00000050: c842 5e3f 7a08 e43f 4225 f23e 13a0 963e
00000060: 33ab 6b3d 2e2d 713f 0733 c43e 148d 3740
00000070: 56f0 3ebf 3617 3b3f 8e6a a13f bece 163f
00000080: baf2 06c0 eefc 433f 961c 9e3f 0c17 90bf
00000090: 39bf d43f d461 de3e 0ead e03e 5c5b f8bd
000000a0: 62e5 8c3f 8295 913e da09 913f 3b89 cabf
000000b0: 34dd b33f c95a a0bf 4a3d 98bf 4e5d 59bf
000000c0: 706d 6cbf aae3 583e 4347 b53f b253 85bf
000000d0: 580a 8cbe 0e3f d9bf 44e7 3a3e 64e0 3040
000000e0: e91b 1440 eae0 3b3f 4cff eabe d044 863f
000000f0: 2202 a7be d1c0 3bbe 563c 403f d06f 26bf
00000100: 3298 62be 58eb 18bf 5e87 44bf 3e06 d93e
00000110: dd73 903f 487f 91bf f66f b83f 2aed 1bbf

prescalers.encoder_length.weight f4 [8, 1]
0.24557531 -0.6287037 0.19836485 -0.12933505 0.74482965 -0.22061777 0.8726946 0.8688321
00000000: 1878 7b3e baf2 20bf 2820 4b3e 6870 04be
00000010: 28ad 3e3f a0e9 61be ea68 5f3f c86b 5e3f

prescalers.encoder_length.bias f4 [8]
-0.3903115 0.10481429 -0.20058283 0.7067788 0.48955917 0.06939161 0.62451565 -0.7844207
00000000: e9d6 c7be e0a8 d63d 9665 4dbe 75ef 343f
00000010: 80a7 fa3e 301d 8e3d 42e0 1f3f cccf 48bf

prescalers.btc_center.weight f4 [8, 1]
-0.25573075 0.20412862 -0.9474087 0.8740411 0.082158685 0.8834399 -0.2910484 0.059541583
00000000: 24ef 82be 1807 513e 6089 72bf 28c1 5f3f
00000010: d042 a83d 1e29 623f 4c04 95be e0e1 733d

prescalers.btc_center.bias f4 [8]
-0.3128641 -0.44331563 -0.3515188 0.6211158 0.747176 0.33004338 0.5933908 0.46348363
00000000: b92f a0be 44fa e2be 46fa b3be 7201 1f3f
00000010: ed46 3f3f 72fb a83e 76e8 173f ba4d ed3e

prescalers.btc_scale.weight f4 [8, 1]
0.0012533665 -0.7443428 0.25086224 -0.34361863 0.38288367 -0.65068114 -0.0679692 -0.393072
00000000: 0048 a43a 408d 3ebf 0471 803e c8ee afbe
00000010: 5409 c43e 0a93 26bf 7033 8bbd bc40 c9be

prescalers.btc_scale.bias f4 [8]
-0.9574295 -0.8809931 0.96064305 -0.09889979 -0.8414116 0.253306 -0.05871588 0.8447497
00000000: 1a1a 75bf c488 61bf b4ec 753f f98b cabd
00000010: c066 57bf 53b1 813e 1080 70bd 8441 583f

prescalers.time_idx.weight f4 [8, 1]
0.9424529 -0.2570312 -0.60005283 -0.57307446 -0.26589048 -0.5489322 0.90134454 -0.3822348
00000000: 9844 713f 9899 83be 109d 19bf 02b5 12bf
00000010: cc22 88be d286 0cbf 84be 663f 48b4 c3be

prescalers.time_idx.bias f4 [8]
0.41850337 0.4044984 0.22899824 0.5054957 1.0433767 0.5956484 0.57556844 -0.7148788
00000000: 1346 d63e 6a1a cf3e 847e 6a3e 2b68 013f
00000010: 5e8d 853f 6a7c 183f 7458 133f 4c02 37bf

prescalers.relative_time_idx.weight f4 [8, 1]
-0.088621736 0.023089767 0.7831625 0.42730284 0.7776997 0.7734852 -0.46645653 0.14186668
00000000: 507f b5bd c026 bd3c 567d 483f 70c7 da3e
00000010: 5417 473f 2003 463f 64d3 eebe 8045 113e

prescalers.relative_time_idx.bias f4 [8]
1.0361578 0.38439822 0.46381885 0.41290116 -0.07469161 0.15758613 -0.66626513 0.76608604
00000000: d2a0 843f d8cf c43e aa79 ed3e c867 d33e
00000010: eaf7 98bd 425e 213e 5a90 2abf 371e 443f

prescalers.Gold.weight f4 [8, 1]
0.057216763 0.7749263 -0.7029637 -0.918658 0.11973512 -0.12811983 -0.4044987 0.5239514
00000000: 205c 6a3d 9261 463f 6ef5 33bf 2c2d 6bbf
00000010: b037 f53d d831 03be 741a cfbe ae21 063f

prescalers.Gold.bias f4 [8]
-0.49756166 0.8403783 -0.88501227 0.21573648 -0.5088198 0.12639028 0.95054597 -0.031017616
00000000: 67c0 febe 0823 573f 2a90 62bf 06ea 5c3e
00000010: 0442 02bf 746c 013e fb56 733f a818 febc

prescalers.Dollar.weight f4 [8, 1]
0.23251772 -0.39353883 -0.51314545 -0.8542017 0.57720006 -0.011105895 0.34629536 -0.76909363
00000000: 2019 6e3e ec7d c9be 805d 03bf f6ac 5abf
00000010: 62c3 133f 80f5 35bc a04d b13e 52e3 44bf

prescalers.Dollar.bias f4 [8]
-0.8924749 -0.9820632 -0.37098002 -0.04374146 -0.16920957 0.49226254 -0.609409 0.90322924
00000000: 3c79 64bf 7e68 7bbf 18f1 bdbe 3f2a 33bd
00000010: 4645 2dbe d609 fc3e 3a02 1cbf 083a 673f

prescalers.SnP.weight f4 [8, 1]
-0.45570695 -0.94039965 0.7564627 -0.642671 0.09530282 -0.0965451 -0.20859528 0.0006479025
00000000: 6c52 e9be 08be 70bf 8aa7 413f 1686 24bf
00000010: 202e c33d 70b9 c5bd 009a 55be 00d8 293a

prescalers.SnP.bias f4 [8]
-1.0579202 0.93074083 -0.6410916 0.60245794 -0.4990406 -0.27106798 0.03317878 -0.28356963
00000000: ee69 87bf 0845 6e3f 941e 24bf af3a 1a3f
00000010: 4082 ffbe 6cc9 8abe 79e6 073d 0a30 91be

static_variable_selection.flattened_grn.resample_norm.mask f4 [3]
-0.0002785857 -0.11115582 0.107963085
00000000: 240f 92b9 aaa5 e3bd c01b dd3d

static_variable_selection.flattened_grn.resample_norm.norm.weight f4 [3]
0.956357 0.9128667 1.1182964
00000000: d0d3 743f a2b1 693f 5624 8f3f

static_variable_selection.flattened_grn.resample_norm.norm.bias f4 [3]
0.041594386 -0.10145303 0.12230987
00000000: e05e 2a3d 9bc6 cfbd 997d fa3d

static_variable_selection.flattened_grn.fc1.weight f4 [3, 24]
0.010620105 0.38022947 0.083681345 0.26560515 0.25190228 0.16255619 0.50604916 0.17423098
0.105283625 -0.17477927 -0.17993724 -0.3037185 0.37389052 0.16352344 0.18488158 -0.31599405
-0.15646678 -0.15957908 0.29517525 -0.2621734 -0.18736058 0.233507 0.18762001 -0.27293158
-0.5298141 -0.16368395 0.28334296 -0.22316672 0.22741625 0.20205796 0.13970497 -0.045135066
-0.13482141 -0.2248851 -0.3715255 -0.088647045 0.19140577 -0.3061177 -0.19653806 0.101654075
0.052307956 -0.17422563 -0.20916745 -0.3478788 -0.28145117 0.12320554 -0.45742726 0.31369877
0.03148014 -0.3893928 0.019951843 0.18375023 0.11746107 0.32439646 -0.3001938 0.6977373
-0.2610347 0.12718049 0.15692993 -0.44316643 -0.16104564 0.062434614 -0.018877942 -0.20465809
0.024323333 -0.14419496 -0.1345298 0.3314737 0.11453384 0.35545367 0.29362947 0.13113384
00000000: f3ff 2d3c 70ad c23e 2061 ab3d 66fd 873e
00000010: 56f9 803e 2175 263e 708c 013f 9b69 323e
00000020: f19e d73d 56f9 32be 7841 38be fe80 9bbe
00000030: 946e bf3e b072 273e 9951 3d3e f9c9 a1be
00000040: d438 20be b368 23be 3621 973e 983b 86be
00000050: 74db 3fbe 761c 6f3e 761f 403e b0bd 8bbe
00000060: e6a1 07bf c49c 27be 5412 913e d185 64be
00000070: cedf 683e 48e8 4e3e d20e 0f3e 8cdf 38bd
00000080: a00e 0abe 4848 66be 9738 bebe 958c b5bd
00000090: e0ff 433e 76bb 9cbe 4641 49be 0330 d03d
000000a0: de40 563d 3468 32be fe2f 56be 2c1d b2be
000000b0: 5e1a 90be 3053 fc3d e833 eabe 209d a03e
000000c0: 52f1 003d 7e5e c7be 0c72 a33c 0529 3c3e
000000d0: 6e8f f03d 4b17 a63e 00b3 99be e99e 323f
000000e0: 57a6 85be 9a3b 023e 3db2 203e b6e6 e2be
000000f0: 26e9 24be 70bb 7f3d eaa5 9abc e491 51be
00000100: ba41 c73c d8a7 13be 2ec2 09be ecb6 a93e
00000110: b890 ea3d 06fe b53e 9a56 963e f347 063e

static_variable_selection.flattened_grn.fc1.bias f4 [3]
-0.009290779 0.081107795 0.010628469
00000000: 5a38 18bc d81b a63d 0823 2e3c

static_variable_selection.flattened_grn.fc2.weight f4 [3, 3]
1.0580595 -0.22514847 -0.7614077 -0.2973507 -0.9725425 -0.66144687 1.2015003 -1.0597072
-0.04020018
00000000: 7e6e 873f 528d 66be 9deb 42bf 5a3e 98be
00000010: 8cf8 78bf 9554 29bf c3ca 993f 7ca4 87bf
00000020: f2a8 24bd

static_variable_selection.flattened_grn.fc2.bias f4 [3]
0.01290656 -0.07858807 -0.036512755
00000000: 0976 533c c8f2 a0bd 668e 15bd

static_variable_selection.flattened_grn.gate_norm.glu.fc.weight f4 [6, 3]
0.73651177 -0.6165552 -0.38030472 0.13213584 0.5869703 0.10549712 0.8140244 -0.4821862
0.82383186 0.2481958 0.2241764 -0.01890735 -0.58101547 0.42664608 0.18362725 0.5726165
0.5606849 -0.6326654
00000000: 098c 3c3f 90d6 1dbf 4db7 c2be 9e4e 073e
00000010: b043 163f e00e d83d e763 503f 1ce1 f6be
00000020: a5e6 523f 0a27 7e3e 808e 653e 96e3 9abc
00000030: 6ebd 14bf 5b71 da3e c808 3c3e ff96 123f
00000040: 0c89 0f3f 5cf6 21bf

static_variable_selection.flattened_grn.gate_norm.glu.fc.bias f4 [6]
0.021402467 -0.11793433 0.059786916 -0.0026424592 0.013349786 0.047626812
00000000: 3a54 af3c 8e87 f1bd 20e3 743d 1c2d 2dbb
00000010: 10b9 5a3c 5514 433d

static_variable_selection.flattened_grn.gate_norm.add_norm.norm.weight f4 [3]
1.0117056 0.8562941 1.0302019
00000000: 927f 813f 1736 5b3f a8dd 833f

static_variable_selection.flattened_grn.gate_norm.add_norm.norm.bias f4 [3]
0.0067343786 -0.0652205 0.053889476
00000000: 10ac dc3b 5392 85bd 36bb 5c3d

static_variable_selection.single_variable_grns.encoder_length.resample_norm.mask f4 [16]
0.011321238 0.031121477 -0.0130362585 -0.0037137186 0.0018397766 0.0006157735 -0.011917146 -0.01303497
-0.04326515 0.023014087 0.00014080066 0.004570511 -0.018307079 0.05869492 -0.012637505 -0.025018655
00000000: b77c 393c 78f2 fe3c 0896 55bc dc61 73bb
00000010: a924 f13a dc6b 213a 2240 43bc a090 55bc
00000020: cc36 31bd 0a88 bc3c e4a3 1339 3ac4 953b
00000030: baf8 95bc 166a 703d 8a0d 4fbc ecf3 ccbc

static_variable_selection.single_variable_grns.encoder_length.resample_norm.norm.weight f4 [16]
0.98821473 1.0905591 0.9622496 0.9970906 0.97661924 1.0013922 0.9953562 0.9896549
0.9532323 1.0250242 1.0018866 0.99015427 0.97923565 1.0670853 0.98241246 0.95038915
00000000: a4fb 7c3f 7197 8b3f fd55 763f 5441 7f3f
00000010: b803 7a3f 9f2d 803f aacf 7e3f 065a 7d3f
00000020: 0807 743f fe33 833f d23d 803f c07a 7d3f
00000030: 30af 7a3f 4096 883f 627f 7b3f b44c 733f

static_variable_selection.single_variable_grns.encoder_length.resample_norm.norm.bias f4 [16]
0.025490858 -0.074145876 0.024772823 -0.008532629 0.02612777 0.008448422 -0.024423964 -0.021631436
-0.04261037 0.026863541 -4.2268133e-05 0.027064689 -0.02336698 0.041106172 -0.00900563 0.016732216
00000000: 34d2 d03c cbd9 97bd 60f0 ca3c 71cc 0bbc
00000010: e809 d63c 406b 0a3c c414 c8bc 6934 b1bc
00000020: 3688 2ebd ee10 dc3c 1049 31b8 c4b6 dd3c
00000030: 1c6c bfbc f25e 283d 5a8c 13bc 0012 893c

static_variable_selection.single_variable_grns.encoder_length.fc1.weight f4 [8, 8]
0.060379095 -0.28785035 0.421827 0.8730775 -0.21119061 -0.3756783 -0.7369266 -0.32461515
0.78296244 0.19068891 0.3493076 -0.40938777 -0.27119386 0.59460557 0.017438058 -0.007450934
0.17293453 0.118579626 0.19899434 -0.038676642 0.4670018 -0.2808294 -0.55502677 0.471
-0.71472645 0.98526335 -0.057728663 -0.44191036 0.57783973 0.21229498 0.15484603 0.033187434
0.07519465 0.9650211 0.44570804 -0.21289083 -0.046317846 0.5398433 0.8927054 0.22236088
-0.17878085 -0.57264966 0.8828947 0.1922977 -0.57751894 0.46475804 0.096361645 -1.1695025
0.8351409 0.69560146 -0.52207303 -0.14942655 -0.43509218 0.40805802 0.60617614 -0.40173095
-0.57860786 -0.402229 0.73789907 -0.7862382 0.5252532 -0.31745684 0.2442126 -0.20108184
00000000: 1250 773d 1f61 93be b5f9 d73e 0282 5f3f
00000010: 5a42 58be e858 c0be 39a7 3cbf f533 a6be
00000020: 3a70 483f f443 433e 72d8 b23e 469b d1be
00000030: ecd9 8abe 1238 183f 42da 8e3c f726 f4bb
00000040: c015 313e e0d9 f23d 2cc5 4b3e 666b 1ebd
00000050: dc1a ef3e dfc8 8fbe 3c16 0ebf e926 f13e
00000060: 50f8 36bf 383a 7c3f e474 6cbd 1342 e2be
00000070: 4eed 133f db63 593e f58f 1e3e 8cef 073d
00000080: a7ff 993d 9f0b 773f d833 e43e 0e00 5abe
00000090: c8b7 3dbd 2c33 0a3f 5788 643f 92b2 633e
000000a0: 5412 37be 2b99 12bf 6305 623f b0e9 443e
000000b0: 48d8 13bf c4f4 ed3e 4159 c53d 42b2 95bf
000000c0: cbcb 553f f012 323f 94a6 05bf 4603 19be
000000d0: 67c4 debe fbec d03e 5c2e 1b3f aeaf cdbe
000000e0: a51f 14bf f6f0 cdbe f4e6 3c3f e846 49bf
000000f0: fe76 063f b489 a2be de12 7a3e 66e8 4dbe

static_variable_selection.single_variable_grns.encoder_length.fc1.bias f4 [8]
0.0058441986 -0.00925477 -0.011076936 -0.007665513 0.0013626765 0.0031184605 -0.0063532554 0.036264874
00000000: b180 bf3b 52a1 17bc 097c 35bc fc2e fbbb
00000010: d69b b23a 165f 4c3b f82e d0bb 7a8a 143d

static_variable_selection.single_variable_grns.encoder_length.fc2.weight f4 [8, 8]
-0.121776395 0.81340253 0.033232927 -0.14025167 -0.07571697 0.35219413 0.79334915 0.505545
-0.5497088 0.51868767 -0.6316019 0.6590589 0.03101569 -0.07699634 -1.0390399 0.21911511
0.31629765 0.6656918 -0.10985117 -0.68455887 -0.41309333 0.4810989 -0.29352778 -0.42737404
-0.23493582 -0.57411647 0.5097126 0.7985536 -0.6806129 0.25149372 -0.1272538 -0.45904097
0.21686843 -0.438587 -0.2817135 1.2228725 0.3226129 0.46487552 0.64748245 0.51705015
1.525094 -0.31966996 -1.4348934 0.8136041 0.19507146 0.46972084 0.5954571 -0.2263026
0.37524417 -0.4051791 -0.41649762 -0.35734907 -0.26690575 0.028946124 -0.5504032 0.31510997
-0.04000944 -0.39156675 0.25317764 -0.004885869 -1.0738648 0.4165395 0.7131921 0.31224328
00000000: e765 f9bd 263b 503f 401f 083d 229e 0fbe
00000010: 8011 9bbd ca52 b43e ee18 4b3f 666b 013f
00000020: b7b9 0cbf b7c8 043f aab0 21bf 16b8 283f
00000030: 9e14 fe3c 42b0 9dbd 42ff 84bf b65f 603e
00000040: c4f1 a13e c76a 2a3f a6f9 e0bd 403f 2fbf
00000050: f880 d3be 9852 f63e 4649 96be c5d0 dabe
00000060: 0493 70be 4cf9 12bf 867c 023f 026e 4c3f
00000070: a63c 2ebf c9c3 803e d24e 02be 6b07 ebbe
00000080: c212 5e3e 7a8e e0be c03c 90be 1687 9c3f
00000090: 852d a53e 2a04 ee3e 69c1 253f 665d 043f
000000a0: 4836 c33f c8ab a3be 96aa b7bf 5c48 503f
000000b0: d0c0 473e 407f f03e e06f 183f debb 67be
000000c0: 0120 c03e a373 cfbe 2d3f d5be 75f6 b6be
000000d0: dfa7 88be 6c20 ed3c 39e7 0cbf 1856 a13e
000000e0: f0e0 23bd 707b c8be 80a0 813e a419 a0bb
000000f0: 6774 89bf aa44 d53e c293 363f 5ade 9f3e

static_variable_selection.single_variable_grns.encoder_length.fc2.bias f4 [8]
-0.012009509 0.0016207292 -0.0025858148 -0.02663704 0.025718475 -0.020996612 0.042640485 0.011972377
00000000: 88c3 44bc a66e d43a c676 29bb ec35 dabc
00000010: 8daf d23c 1601 acbc caa7 2e3d ca27 443c

static_variable_selection.single_variable_grns.encoder_length.gate_norm.glu.fc.weight f4 [32, 8]
0.37082368 0.3634628 -0.28632706 0.1804344 0.38362825 -0.09081937 0.16251439 -0.36229214
0.22622004 -0.1227708 0.40423384 0.2807763 -0.25953293 -0.1472652 -0.3303275 -0.33627766
-0.35808927 0.20254111 0.23687677 -0.25056666 0.29272202 -0.11834699 0.124567464 0.30826402
0.3017879 -0.29066032 0.14787641 -0.19417424 -0.33755064 -0.04261098 -0.07441193 0.081665404
0.04240591 0.258261 0.1690229 -0.35765707 -0.31714526 -0.26965123 0.22385174 0.34129977
-0.2322076 0.06904678 0.021785166 0.14113277 0.16137943 0.0800112 0.24224627 -0.13238874
0.37481314 -0.026052292 -0.33044264 0.1956098 0.25002855 0.2616282 0.037383225 0.14120734
0.120461196 -0.18733498 0.0015047262 0.0124415755 -0.22606042 -0.12501317 -0.16912122 -0.054488257
-0.24205053 0.19486895 0.02020608 0.30107397 -0.27203083 0.113854714 -0.14103916 0.21982524
-0.16879314 -0.17360936 0.013800466 -0.21680495 0.28115237 -0.019334387 0.22409889 -0.1231967
-0.10132462 -0.37500578 0.105514646 0.13405117 0.25774366 0.06735867 -0.044677652 -0.04776095
0.1481047 0.36759946 0.013065282 -0.32560864 -0.3239408 0.16925988 0.33597726 -0.21247843
0.21209823 0.31699017 0.35359472 0.24831161 -0.2712772 0.25907755 0.007739731 -0.22142345
-0.38728315 -0.12312022 0.2890079 0.37961566 0.31118923 -0.2921953 0.24235855 0.1983409
0.3431192 -0.23527743 0.32863483 -0.050903305 0.14744364 -0.31241655 -0.06383599 -0.2434972
-0.114543214 -0.04906418 -0.1468406 0.17002451 0.37243247 0.09916359 -0.1706509 -0.08537285
-0.12299524 0.047709916 -0.053841297 0.22156969 0.04155284 -0.3554071 -0.12693541 -0.19516625
0.13153479 0.3760341 0.2853972 0.087009266 -0.22965844 -0.027948566 0.07497102 -0.0027708565
0.21355024 0.18614477 -0.11726898 -0.14321288 0.044042904 0.037886158 0.007815574 -0.37415385
-0.36468574 0.34024706 0.37821472 -0.33949825 -0.26692376 -0.044072043 -0.22467075 -0.38106805
0.11613562 -0.26246887 0.13079324 -0.249443 -0.021926507 -0.10533064 -0.08236292 -0.16353317
-0.32534394 0.31092548 -0.030687112 -0.20868587 0.36269316 0.05386731 -0.094471484 0.11248045
-0.02208959 0.09134768 0.33358333 0.1445168 0.26543388 0.20526524 -0.15801713 -0.02838324
-0.07261795 0.3894266 -0.1492905 0.27648896 -0.11085179 0.31936157 0.16787839 0.21220222
-0.2783795 -0.007705828 0.35719782 -0.30813634 -0.08169461 -0.38278013 -0.35644898 0.2840658
-0.23012146 0.037466034 -0.32924092 -0.29282773 0.35027486 0.07520297 -0.1066055 -0.10319262
0.37293437 0.27630335 0.27043608 0.3487491 0.017523993 0.059260774 0.022536483 -0.15530024
-0.33339804 0.34151763 0.32932347 0.038675256 -0.14419794 0.33403695 -0.17467377 -0.012178471
-0.134624 -0.2235072 -0.2979774 0.37846303 0.34290224 0.1890721 -0.14041355 -0.12847304
0.22884881 0.2892198 0.39618737 0.1826874 -0.15778424 -0.16973366 0.36744308 -0.2694279
-0.3232184 -0.040682245 -0.059361383 0.19386014 -0.26583332 -0.0952531 -0.29970777 0.26622486
0.08610453 -0.19815746 -0.106670596 0.24342312 0.3113212 -0.35000116 -0.22640604 0.06707981
00000000: 9adc bd3e cc17 ba3e 7699 92be ccc3 383e
00000010: ec6a c43e 81ff b9bd 2c6a 263e 5b7e b9be
00000020: 3aa6 673e 426f fbbd bdf7 ce3e e9c1 8f3e
00000030: 80e1 84be b0cc 16be b020 a9be 962c acbe
00000040: 7a57 b7be f066 4f3e d38f 723e 464a 80be
00000050: a9df 953e e85f f2bd 3a1d ff3d c8d4 9d3e
00000060: f283 9a3e 6ed1 94be ea6c 173e 9dd5 46be
00000070: 70d3 acbe da88 2ebd 4865 98bd 3140 a73d
00000080: d2b1 2d3d c93a 843e 5714 2d3e d41e b7be
00000090: dd60 a2be ba0f 8abe 6439 653e d8be ae3e
000000a0: d4c7 6dbe 6668 8d3d ce76 b23c 1c85 103e
000000b0: a640 253e e9dc a33d 680f 783e ea90 07be
000000c0: 82e7 bf3e 9e6b d5bc c72f a9be ef4d 483e
000000d0: be03 803e 22f4 853e 271f 193d a898 103e
000000e0: 5cb4 f63d bed4 3fbe 3c3a c53a c0d7 4b3c
000000f0: 627c 67be 7403 00be 1d2e 2dbe 142f 5fbd
00000100: 18dc 77be ba8b 473e 3987 a53c 5e26 9a3e
00000110: a047 8bbe a92c e93d 926c 10be de19 613e
00000120: 1cd8 2cbe a7c6 31be 5a1b 623c 1e02 5ebe
00000130: 34f3 8f3e 2663 9ebc 2e7a 653e 8d4e fcbd
00000140: 4883 cfbd c200 c0be 1018 d83d b644 093e
00000150: faf6 833e 58f3 893d eaff 36bd fca0 43bd
00000160: c2a8 173e ff35 bc3e c40f 563c 2db6 a6be
00000170: 92db a5be 7652 2d3e 3605 ac3e f293 59be
00000180: 4730 593e 894c a23e 5e0a b53e 6645 7e3e
00000190: d8e4 8abe d0a5 843e 929d fd3b d4bc 62be
000001a0: fa49 c6be 7426 fcbd d8f8 933e fc5c c23e
000001b0: 3254 9f3e 9f9a 95be d72c 783e e019 4b3e
000001c0: 52ad af3e 91ec 70be d342 a83e fc7f 50bd
000001d0: 77fb 163e 10f5 9fbe 72bc 82bd 5457 79be
000001e0: a295 eabd 86f7 48bd 625d 16be e81a 2e3e
000001f0: 78af be3e 4816 cb3d 1cbf 2ebe f6d7 aebd
00000200: eee4 fbbd 796b 433d b188 5cbd 2ae3 623e
00000210: 5033 2a3d ebf7 b5be 5bfb 01be a9d9 47be
00000220: 0eb1 063e 8b87 c03e 951f 923e ea31 b23d
00000230: 952b 6bbe 64f4 e4bc 688a 993d 4297 35bb
00000240: eaac 5a3e bc9c 3e3e b82a f0bd 66a6 12be
00000250: 5566 343d 842e 1b3d e50c 003c 1891 bfbe
00000260: 17b8 babe dd34 ae3e 5ca5 c13e b7d2 adbe
00000270: 3baa 88be e384 34bd 1710 66be 5a1b c3be
00000280: 83d8 ed3d 5262 86be aaee 053e fc6d 7fbe
00000290: 389f b3bc 97b7 d7bd e4ad a8bd 3d75 27be
000002a0: 7b93 a6be a031 9f3e 8a63 fbbc c0b1 55be
000002b0: ebb2 b93e f8a3 5c3d 447a c1bd 265c e63d
000002c0: 3af5 b4bc 7e14 bb3d 6fcb aa3e 36fc 133e
000002d0: f3e6 873e 0d31 523e 3ecf 21be f883 e8bc
000002e0: b8b8 94bd ec62 c73e 9cdf 18be f68f 8d3e
000002f0: 4306 e3bd 5c83 a33e 50e8 2b3e 8a4b 593e
00000300: c287 8ebe 2c81 fcbb a2e2 b63e 0cc4 9dbe
00000310: 814f a7bd c2fb c3be 7b80 b6be 1371 913e
00000320: f6a4 6bbe fc75 193d 4492 a8be 84ed 95be
00000330: 3a57 b33e 0404 9a3d fc53 dabd a756 d3bd
00000340: 41f1 be3e a277 8d3e 9976 8a3e 3e8f b23e
00000350: 7a8e 8f3c 6dbb 723d 6e9e b83c 0707 1fbe
00000360: 26b3 aabe 66db ae3e 169d a83e f269 1e3d
00000370: a0a8 13be e406 ab3e aedd 32be 3688 47bc
00000380: e0da 09be 12df 64be 7e90 98be e8c5 c13e
00000390: e290 af3e 1e9c 413e 92c8 0fbe 708e 03be
000003a0: 5857 6a3e 9e14 943e 12d9 ca3e 6812 3b3e
000003b0: 3192 21be a9ce 2dbe 8021 bc3e 74f2 89be
000003c0: e27c a5be 6da2 26bd ec24 73bd 4683 463e
000003d0: 4e1b 88be 0f14 c3bd 4c73 99be a04e 883e
000003e0: 9257 b03d cae9 4abe 1d76 dabd e943 793e
000003f0: 7e65 9f3e 5a33 b3be fcd6 67be 2461 893d

static_variable_selection.single_variable_grns.encoder_length.gate_norm.glu.fc.bias f4 [32]
0.022434197 -0.038891822 0.018317457 0.0013695278 0.01885952 0.0074646343 -0.015075583 -0.01170686
-0.028284311 0.021821003 -0.00019979944 0.018652534 -0.019158397 0.024090739 -0.0045685843 0.011036073
0.012451413 0.020610463 -0.00036669022 0.00037982437 -0.00010434113 0.0005841607 -0.0058478755 0.0014150555
0.0034094735 0.0017336891 0.0027050602 -0.0070439475 0.002843821 -0.007478428 -0.0037836372 0.0039142556
00000000: ecc7 b73c 084d 1fbd 7e0e 963c ba81 b33a
00000010: 487f 9a3c e499 f43b 94ff 76bc 21ce 3fbc
00000020: 80b4 e7bc f6c1 b23c 4181 51b9 33cd 983c
00000030: 12f2 9cbc f159 c53c 10b4 95bb a5d0 343c
00000040: 0301 4c3c 46d7 a83c 5440 c0b9 2a23 c739
00000050: b8d1 dab8 5c22 193a 899f bfbb 6279 b93a
00000060: 7971 5f3b f43c e33a 6147 313b ead0 e6bb
00000070: 665f 3a3b 9a0d f5bb e6f6 77bb 2843 803b

static_variable_selection.single_variable_grns.encoder_length.gate_norm.add_norm.norm.weight f4 [16]
1.0254642 1.0956311 0.94199264 0.97878414 0.9778077 0.9983716 1.0034848 0.9967693
0.9563813 1.0267725 1.001287 0.97741973 0.98282766 1.0634456 0.98488843 0.98453087
00000000: 6942 833f a43d 8c3f 6e26 713f 9991 7a3f
00000010: 9b51 7a3f 4895 7f3f 3172 803f 462c 7f3f
00000020: 68d5 743f 486d 833f 2c2a 803f 2e38 7a3f
00000030: 989a 7b3f fc1e 883f a621 7c3f 370a 7c3f

static_variable_selection.single_variable_grns.encoder_length.gate_norm.add_norm.norm.bias f4 [16]
0.02424078 -0.06965454 0.03504571 0.00056971854 0.028546782 0.014255946 -0.011495274 -0.011118089
-0.04052304 0.03043558 0.008897174 0.029742774 -0.018502798 0.04283897 -0.00771383 0.011278294
00000000: 9a94 c63c 0aa7 8ebd 178c 0f3d 2a59 153a
00000010: f1da e93c c591 693c ac56 3cbc a528 36bc
00000020: 7dfb 25bd 0a54 f93c 74c5 113c 1ea7 f33c
00000030: 2e93 97bc ea77 2f3d 4cc4 fcbb 98c8 383c

static_variable_selection.single_variable_grns.btc_center.resample_norm.mask f4 [16]
-0.033269748 0.08386393 -0.04159108 0.027963955 -0.03762403 0.035398234 0.01689641 0.010796789
-0.048468422 0.020608097 -0.00066532823 0.030909723 -0.04031284 0.079892844 -0.0225625 0.009665545
00000000: dc45 08bd dac0 ab3d 695b 2abd aa14 e53c
00000010: a81b 1abd bdfd 103d 576a 8a3c 04e5 303c
00000020: d386 46bd 50d2 a83c 6c69 2eba 6336 fd3c
00000030: 141f 25bd dc9e a33d fed4 b8bc 3c5c 1e3c

static_variable_selection.single_variable_grns.btc_center.resample_norm.norm.weight f4 [16]
0.9312439 1.1338112 0.92315257 1.0305762 0.9374479 1.0354078 1.0157869 0.9927799
0.9468173 1.0186822 0.9869325 1.0228746 0.9568043 1.1020772 0.9528914 1.0144393
00000000: 0066 6e3f ba20 913f ba53 6c3f ece9 833f
00000010: 96fc 6f3f 3e88 843f 4e05 823f d326 7e3f
00000020: 9e62 723f 2e64 823f 9ca7 7c3f 8eed 823f
00000030: 20f1 743f de10 8d3f b1f0 733f 26d9 813f

static_variable_selection.single_variable_grns.btc_center.resample_norm.norm.bias f4 [16]
0.06394463 -0.1299523 0.08566216 -0.027686536 0.048752107 -0.017700404 0.0028451206 -0.007037809
-0.055969037 0.024333712 -0.004832045 0.032038882 -0.05631641 0.06546179 0.012628324 0.00013458717
00000000: 67f5 823d 3712 05be a46f af3d e0ce e2bc
00000010: 4ab0 473d 7000 91bc 3475 3a3b 6c9d e6bb
00000020: ca3f 65bd 7e57 c73c 2256 9ebb 343b 033d
00000030: 09ac 66bd d510 863d 08e7 4e3c f81f 0d39

static_variable_selection.single_variable_grns.btc_center.fc1.weight f4 [8, 8]
-0.097117215 -0.054430876 0.021963142 0.84755147 0.11327924 0.26486462 -0.24688518 0.41837698
0.29244557 -0.8569735 -0.6361288 -0.6374662 0.4716165 0.8973047 -0.46461317 0.6954104
0.26286578 0.33853114 0.2265935 -0.28258544 0.23744762 -0.029509578 -0.29016805 -1.0805522
0.23615903 -0.5420742 -1.2968758 -0.13152838 -0.46469796 -0.28291208 -0.4562044 -0.5171433
0.18811075 0.090657935 -0.31304497 -0.09143391 0.17412034 -0.40372688 -0.27549782 -0.34912
-0.2533348 0.037444815 -0.9690919 0.4722023 -0.013989848 -0.070829496 0.03406561 -1.0286307
-0.15666023 0.4105454 0.99888873 -1.0278784 0.056594327 -0.58624196 -0.18281879 0.06649863
0.14285365 0.09806888 -0.42280304 0.46911418 0.49580556 -0.8900913 0.111052744 -0.23682484
00000000: 64e5 c6bd e9f2 5ebd 0cec b33c 22f9 583f
00000010: f2fe e73d 569c 873e 78cf 7cbe 8235 d63e
00000020: 6dbb 953e 9e62 5bbf 56d9 22bf fc30 23bf
00000030: b877 f13e c3b5 653f c7e1 edbe 6a06 323f
00000040: 5896 863e f453 ad3e 2008 683e 0aaf 90be
00000050: 7825 733e 12be f1bc e890 94be 894f 8abf
00000060: acd3 713e 60c5 0abf 0700 a6bf 60af 06be
00000070: e4ec edbe dad9 90be a093 e9be 8163 04bf
00000080: 1ba0 403e deaa b93d 6e47 a0be b441 bbbd
00000090: 9a4c 323e 4ab5 cebe 0d0e 8dbe dbbf b2be
000000a0: 19b5 81be bc5f 193d 6816 78bf 80c4 f13e
000000b0: ad35 65bc 0e0f 91bd 6288 0b3d 2caa 83bf
000000c0: 8a6b 20be 0233 d23e 2cb7 7f3f 8591 83bf
000000d0: 74cf 673d f413 16bf d934 3bbe 6f30 883d
000000e0: 3a48 123e 56d8 c83d a479 d8be bc2f f03e
000000f0: 3ada fd3e 06dd 63bf 9f6f e33d 3682 72be

static_variable_selection.single_variable_grns.btc_center.fc1.bias f4 [8]
0.07392808 -0.017033476 -0.011016595 -0.0132388845 0.021673273 0.01079908 0.0063494416 -0.022257283
00000000: 9b67 973d ca89 8bbc f37e 34bc e8e7 58bc
00000010: 268c b13c a0ee 303c fa0e d03b e854 b6bc

static_variable_selection.single_variable_grns.btc_center.fc2.weight f4 [8, 8]
0.74497163 -0.11389383 -0.28932846 -0.19225681 -0.23798707 -0.15375358 0.5345222 -0.65473837
0.55148673 -0.19630435 0.6183839 -0.46526372 0.78287745 0.21134785 0.050054707 0.3082559
0.10502187 -0.66721517 -0.01997632 -0.015693132 1.0019782 -0.28471908 0.13129863 -0.24955209
-1.1123165 -0.35862482 0.34451887 -0.1833098 0.064840525 -0.36967182 0.26983285 0.27844158
0.003819297 -0.28360337 0.3277597 0.5030403 -0.054035537 0.04015167 0.30021882 -0.24166083
0.013451178 -1.1131444 0.009947988 -0.3055681 -0.31735957 -0.61085725 -0.038193487 -0.037396178
-0.4338893 0.08110862 0.102330625 0.27241665 -0.06265569 -0.16382445 0.53013194 0.060521923
-0.21337982 0.13478778 -0.33811024 0.06315461 -0.14710072 0.41684675 -0.2752295 0.58503723
00000000: 76b6 3e3f 2b41 e9bd dc22 94be f8de 44be
00000010: e2b2 73be 9471 1dbe 72d6 083f ef9c 27bf
00000020: 3c2e 0d3f 0204 49be 684e 1e3f 0c37 eebe
00000030: a86a 483f 926b 583e 2a06 4d3d b8d3 9d3e
00000040: b515 d73d 9dce 2abf 61a5 a3bc e28e 80bc
00000050: d240 803f b3c6 91be 2673 063e 958a 7fbe
00000060: 6360 8ebf ac9d b7be c764 b03e 90b5 3bbe
00000070: 1ccb 843d a045 bdbe 8827 8a3e e58f 8e3e
00000080: 2c4d 7a3b 7634 91be 1fd0 a73e 40c7 003f
00000090: 5e54 5dbd 1476 243d 48b6 993e f075 77be
000000a0: 5462 5c3c 847b 8ebf e3fc 223c 6c73 9cbe
000000b0: f47c a2be 2461 1cbf c670 1cbd bc2c 19bd
000000c0: bd26 debe 471c a63d b892 d13d 327a 8b3e
000000d0: a051 80bd 99c1 27be bab6 073f d6e5 773d
000000e0: 3d80 5abe cf05 0a3e c91c adbe 3457 813d
000000f0: 92a1 16be f06c d53e e2ea 8cbe 00c5 153f

static_variable_selection.single_variable_grns.btc_center.fc2.bias f4 [8]
0.021780252 0.016475566 0.028186627 -0.07063539 -0.016111186 0.0133003695 0.010690991 0.0131627945
00000000: 806c b23c c4f7 863c a4e7 e63c 4aa9 90bd
00000010: 9bfb 83bc cbe9 593c 4429 2f3c c3a8 573c

static_variable_selection.single_variable_grns.btc_center.gate_norm.glu.fc.weight f4 [32, 8]
0.07813069 -0.16181311 0.29445228 -0.15630144 -0.19854587 -0.12543981 0.040938526 -0.3186695
0.014866255 -0.1494934 0.19840533 0.11686474 -0.16319963 -0.016131185 -0.06306283 0.19922075
-0.30919698 0.16557083 0.2961326 0.042774525 -0.20985045 0.068086304 0.12465968 0.25023267
0.030070895 -0.3337769 0.100498214 -0.09595315 0.214071 0.32056576 -0.12083225 0.009815551
0.36841726 -0.013659397 0.015821792 -0.22049373 0.079824194 -0.19891782 -0.37216476 -0.2858014
0.1479982 -0.087787576 0.10436413 0.30045015 0.06170371 0.38184112 0.11151337 -0.3817801
0.2519856 -0.33782926 0.18137917 -0.047339793 -0.36450005 -0.09387076 0.3417905 -0.16283834
-0.16752437 0.20326257 0.07777068 0.16566792 -0.23963466 -0.1276114 -0.25165582 0.081177935
0.029345311 -0.26133174 -0.15460324 0.27148488 0.05488091 0.14647166 -0.05247515 -0.41799876
0.26872435 0.3913377 0.3140781 -0.3305306 -0.19078237 -0.32472277 0.33622164 0.3498732
-0.18230677 0.06767805 0.26993454 0.3079673 -0.19172445 -0.1334634 -0.29334712 -0.35026935
-0.10343602 -0.10546493 0.22533438 0.28285748 -0.11351776 0.14725468 0.002928683 0.22170076
-0.39768 -0.13621114 -0.06953079 0.4075699 0.18338001 0.22063383 0.23547487 -0.3398254
-0.2699651 -0.21315414 -0.11243935 -0.20871319 0.13020827 0.34750226 0.3610227 0.2979347
0.19152263 0.04947409 -0.23827401 0.0029661874 0.25017607 -0.010890236 -0.06728992 0.008757433
-0.34874988 -0.007816925 0.07033182 0.36059844 0.13022156 0.39440042 0.0046786377 0.27025434
-0.2437381 0.09738054 0.3855937 0.11745485 -0.21062821 0.17533155 -0.3623153 0.13569303
-0.21760723 0.2605948 0.048600607 0.14111242 -0.16566017 -0.026341997 -0.19759174 0.29891992
0.14306155 -0.21771246 -0.13030387 0.20540151 -0.2353459 0.087074965 -0.18304724 -0.07728671
0.26258588 -0.06580401 0.21715567 -0.23721305 0.30157316 -0.35550547 -0.37068096 -0.39497477
-0.32218617 -0.022171501 -0.382155 0.061783336 -0.19701147 0.055381734 -0.036803182 0.16660354
-0.021722086 -0.27776277 0.010549542 0.040588073 -0.0059311343 -0.112896465 -0.04117729 0.065862425
0.019227922 -0.111228526 0.26670498 -0.32323173 0.26989645 -0.2377955 0.27608436 -0.2727508
-0.23951726 0.050724603 0.35797137 -0.041941505 -0.061153837 0.14871219 0.1322685 -0.1220558
0.044412978 0.41930318 -0.03552465 -0.4011088 -0.35842976 0.18142936 -0.28026104 -0.28886297
0.034137417 -0.074031904 0.37999517 -0.3366595 0.26576018 0.08026034 0.06268755 0.1794905
0.21275628 0.27365732 -0.29051334 0.37299287 0.13461018 0.05508004 -0.17307165 0.3747445
-0.19881468 0.063998304 0.16887963 -0.30980268 0.3615721 0.008875857 0.041609876 -0.372825
0.16250783 -0.24957839 -0.13919634 -0.037212614 -0.23821363 0.29488367 -0.34595156 0.17427836
0.14022373 -0.27432692 -0.02165128 -0.36253557 -0.38510293 0.28271407 -0.05119156 -0.13318181
-0.31232443 0.35440928 -0.16370776 0.31841755 -0.3679934 0.13059875 -0.14342852 0.26163813
0.014745294 -0.1352531 -0.16297662 -0.16062003 0.33752185 -0.014254207 -0.3729689 0.013684522
00000000: fc02 a03d 56b2 25be 73c2 963e 7c0d 20be
00000010: 9c4f 4bbe 4b73 00be 28af 273d a628 a3be
00000020: 9891 733c cc14 19be c42a 4b3e c856 ef3d
00000030: ce1d 27be 8c25 84bc 1627 81bd 8600 4c3e
00000040: 114f 9ebe 668b 293e b19e 973e 5734 2f3d
00000050: 09e3 56be d570 8b3d 934d ff3d 7f1e 803e
00000060: 3d57 f63c cee4 aabe 02d2 cd3d 1683 c4bd
00000070: 6e35 5b3e 3221 a43e e676 f7bd 68d1 203c
00000080: 30a1 bc3e aacb 5fbc b49c 813c 1cc9 61be
00000090: de7a a33d 1db1 4bbe 618c bebe 9054 92be
000000a0: d78c 173e f9c9 b3bd dcbc d53d 9ad4 993e
000000b0: 08bd 7c3d ae80 c33e 1f61 e43d ae78 c3be
000000c0: 4204 813e f5f7 acbe 76bb 393e 5fe7 41bd
000000d0: c09f babe 503f c0bd 2aff ae3e 18bf 26be
000000e0: 828b 2bbe 1024 503e 3c46 9f3d daa4 293e
000000f0: ca62 75be 90ac 02be 08d9 80be 9e40 a63d
00000100: 9465 f03c 46cd 85be 5050 1ebe 1100 8b3e
00000110: ceca 603d abfc 153e 2ff0 56bd ef03 d6be
00000120: 3d96 893e 6a5d c83e d8ce a03e 4f3b a9be
00000130: 745c 43be 1042 a6be 3e25 ac3e 9422 b33e
00000140: a0ae 3abe ca9a 8a3d dc34 8a3e e4ad 9d3e
00000150: 6a53 44be a1aa 08be 9831 96be 8156 b3be
00000160: 44d6 d3bd fffd d7bd 0ebe 663e b2d2 903e
00000170: 007c e8bd eec9 163e 26ef 3f3b 8605 633e
00000180: b79c cbbe ef7a 0bbe 2966 8ebd 00ad d03e
00000190: f8c7 3b3e d6ed 613e 5320 713e 98fd adbe
000001a0: de38 8abe 1445 5abe 9a46 e6bd e9b8 55be
000001b0: 5155 053e d1eb b13e f8d7 b83e e68a 983e
000001c0: 821e 443e 58a5 4a3d 1afe 73be 5e64 423b
000001d0: 1417 803e f66c 32bc 4ccf 89bd 567b 0f3c
000001e0: 588f b2be 8f12 00bc 210a 903d 5ca0 b83e
000001f0: cd58 053e daee c93e 424f 993b c75e 8a3e
00000200: 7b96 79be 736f c73d 8a6c c53e 2b8c f03d
00000210: ecae 57be 1d8a 333e 6481 b9be 1df3 0a3e
00000220: 6ed4 5ebe ae6c 853e 6e11 473d c67f 103e
00000230: d2a2 29be 2ccb d7bc 7d55 4abe 080c 993e
00000240: ba7e 123e 04f0 5ebe 616e 05be c654 523e
00000250: 84fe 70be 5c54 b23d bc70 3bbe 7f48 9ebd
00000260: a871 863e 41c4 86bd 0e5e 5e3e fae7 72be
00000270: cc67 9a3e d004 b6be e5c9 bdbe 223a cabe
00000280: 96f5 a4be 02a1 b5bc d2a9 c3be 8610 7d3d
00000290: 60bd 49be f5d7 623d efbe 16bd 1e9a 2a3e
000002a0: 84f2 b1bc ec36 8ebe fcd7 2c3c ae3f 263d
000002b0: f659 c2bb 4336 e7bd 85a9 28bd e1e2 863d
000002c0: e083 9d3c c8cb e3bd 8e8d 883e a17e a5be
000002d0: de2f 8a3e aa80 73be ee5a 8d3e fea5 8bbe
000002e0: 0344 75be 9ac4 4f3d 0648 b73e dbca 2bbd
000002f0: 727c 7abd 0248 183e 6571 073e 64f8 f9bd
00000300: 62ea 353d e8ae d63e 4c82 11bd 225e cdbe
00000310: 1b84 b7be 9ec8 393e 607e 8fbe d9e5 93be
00000320: add3 0b3d 0a9e 97bd ba8e c23e a25e acbe
00000330: b811 883e 885f a43d 5562 803d 5ccc 373e
00000340: c8dc 593e d01c 8c3e 2abe 94be ecf8 be3e
00000350: 40d7 093e 9c9b 613d b239 31be 83de bf3e
00000360: 1396 4bbe 8b11 833d c8ee 2c3e 759e 9ebe
00000370: fa1f b93e 0b6c 113c 1e6f 2a3d ebe2 bebe
00000380: 7468 263e 7a91 7fbe 7c89 0ebe 416c 18bd
00000390: 46ee 73be fefa 963e 9020 b1be 0776 323e
000003a0: cf96 0f3e 9474 8cbe 065e b1bc 439e b9be
000003b0: 362c c5be e6bf 903e 3eae 51bd d060 08be
000003c0: fde8 9fbe 2275 b53e 02a3 27be a007 a33e
000003d0: a269 bcbe aebb 053e edde 12be 6ff5 853e
000003e0: 3f96 713c ca7f 0abe 58e3 26be 9479 24be
000003f0: aacf ac3e 7a8a 69bc c8f5 bebe 0c35 603c

static_variable_selection.single_variable_grns.btc_center.gate_norm.glu.fc.bias f4 [32]
0.042189013 -0.10431419 0.060222544 -0.0145748835 0.042867813 -0.012960333 0.004910295 -0.006750093
-0.05498083 0.019877072 0.0007119174 0.023040451 -0.05010979 0.053205013 0.008680938 -0.0033807554
-0.021788592 -0.018820137 -0.021111753 -0.004580106 0.013835663 0.027165776 -0.0027879474 -0.0023628785
0.03837437 0.018838547 -0.0039767437 -0.011480054 0.058865234 -0.0024259673 0.00020732025 0.0025711313
00000000: 63ce 2c3d aea2 d5bd eaab 763d 7ecb 6ebc
00000010: 2996 2f3d 9457 54bc 8ae6 a03b e22f ddbb
00000020: 9433 61bd 3ed5 a23c f89f 3a3a 54bf bc3c
00000030: ec3f 4dbd 80ed 593d 7e3a 0e3c aa8f 5dbb
00000040: fd7d b2bc b02c 9abc 8ef2 acbc b714 96bb
00000050: faae 623c c38a de3c ffb5 36bb 86da 1abb
00000060: 722e 1d3d 4c53 9a3c 584f 82bb d616 3cbc
00000070: ac1c 713d fafc 1ebb 1b64 5939 6d80 283b

static_variable_selection.single_variable_grns.btc_center.gate_norm.add_norm.norm.weight f4 [16]
0.921918 1.1047306 0.9083059 1.0015354 0.93292725 1.0194175 1.0074456 0.98271954
0.95371664 1.021603 0.97466797 1.0049626 1.0484536 1.0974874 0.9778881 1.0322709
00000000: d102 6c3f d067 8d3f bc86 683f 5032 803f
00000010: 52d4 6e3f 467c 823f faf3 803f 8293 7b3f
00000020: c626 743f e3c3 823f d783 793f 9da2 803f
00000030: ba33 863f 787a 8c3f e056 7a3f 7421 843f

static_variable_selection.single_variable_grns.btc_center.gate_norm.add_norm.norm.bias f4 [16]
0.07580054 -0.10323274 0.0992831 -0.0026086858 0.06433366 0.0007428383 0.0039373636 -0.01066589
-0.06338045 0.02225051 -0.0013405151 0.02950711 -0.055506334 0.06556295 0.02424786 0.010882067
00000000: 503d 9b3d b06b d3bd f054 cb3d 7cf6 2abb
00000010: 5ec1 833d 09bb 423a 0005 813b fcbf 2ebc
00000020: 9ccd 81bd b446 b63c 39b4 afba e5b8 f13c
00000030: 9c5a 63bd de45 863d 73a3 c63c b24a 323c

static_variable_selection.single_variable_grns.btc_scale.resample_norm.mask f4 [16]
-0.0711384 0.1774838 -0.07450405 -0.056805905 0.024269551 -0.0042359782 -0.021981813 0.01897452
0.047894835 -0.04351624 0.008473078 0.002269347 0.057032607 0.031509757 -0.03462412 -0.01782905
00000000: 02b1 91bd 50be 353e 9495 98bd 4fad 68bd
00000010: f0d0 c63c f6cd 8abb 3413 b4bc 7470 9b3c
00000020: 602d 443d 163e 32bd aad2 0a3c 53b9 143b
00000030: 069b 693d 6010 013d 05d2 0dbd 3a0e 92bc

static_variable_selection.single_variable_grns.btc_scale.resample_norm.norm.weight f4 [16]
0.9378148 1.2052053 0.92467153 0.9343718 1.0299569 0.99998176 0.9795015 1.0274335
1.0493495 0.9698261 1.0069728 1.0290601 0.97904754 1.0156816 0.9778837 0.9992111
00000000: a114 703f 2b44 9a3f 46b7 6c3f fe32 6f3f
00000010: a1d5 833f cefe 7f3f 9cc0 7a3f f182 833f
00000020: 1651 863f 8646 783f 7ce4 803f 3eb8 833f
00000030: dca2 7a3f db01 823f 9656 7a3f 4ccc 7f3f

static_variable_selection.single_variable_grns.btc_scale.resample_norm.norm.bias f4 [16]
0.053022485 -0.19212466 0.07633854 -0.010134736 0.032255605 0.0033516707 -0.02820901 -0.035509437
-0.05818718 0.04628839 0.007179972 0.048000906 -0.04856686 0.08079832 -0.019521128 -0.000707175
00000000: 1b2e 593d 54bc 44be 6157 9c3d 2a0c 26bc
00000010: 741e 043d b4a7 5b3b 9516 e7bc 5872 11bd
00000020: ae55 6ebd e598 3d3d f845 eb3b 999c 443d
00000030: 0bee 46bd 9779 a53d c6ea 9fbc b661 39ba

static_variable_selection.single_variable_grns.btc_scale.fc1.weight f4 [8, 8]
0.2503162 0.059638467 0.21748982 -0.7633264 0.3063101 0.69482785 0.16116726 0.61153483
0.2432099 -0.103869945 0.6528821 0.33935398 0.5696063 -1.0545781 0.4926421 0.30860233
0.040401064 0.123174414 0.11053567 -0.61498797 -0.5038567 -0.960842 -0.79514337 0.49761084
0.3847335 -0.54331076 -0.3065679 0.12492935 -0.015753748 0.49839264 0.022260431 0.5611676
0.567756 -0.94439316 -0.68783504 0.19557963 -0.70982534 -0.6523261 0.5348424 0.81620115
-0.6904689 -0.76778316 0.5833929 0.7846303 0.92366266 -0.765328 0.43726355 0.27843
0.42491698 0.62690926 -0.9075426 0.53819025 0.2033919 0.5825651 -0.25509945 0.640046
0.2862394 0.21494508 -0.14611334 -0.94111 0.024099406 0.1999031 -0.102783605 -0.06770478
00000000: 7229 803e 7747 743d a7b5 5e3e 5c69 43bf
00000010: add4 9c3e 3de0 313f 0809 253e 8c8d 1c3f
00000020: 040c 793e c4b9 d4bd 4823 273f cebf ad3e
00000030: b8d1 113f 6afc 86bf 963b fc3e 2001 9e3e
00000040: 967b 253d de42 fc3d 8660 e23d da6f 1dbf
00000050: c1fc 00bf bef9 75bf 848e 4bbf d9c6 fe3e
00000060: cafb c43e 6a16 0bbf 78f6 9cbe f6da ff3d
00000070: 010e 81bc 522d ff3e 825b b63c aea8 0f3f
00000080: 7558 113f c0c3 71bf f515 30bf 0746 483e
00000090: 1db7 35bf d8fe 26bf 6eeb 083f 8ff2 503f
000000a0: 92c2 30bf 708d 44bf 3d59 153f 88dd 483f
000000b0: 2875 6c3f 89ec 43bf 02e1 df3e 618e 8e3e
000000c0: b88e d93e 207d 203f b654 68bf d6c6 093f
000000d0: f745 503e fd22 153f 659c 82be 0eda 233f
000000e0: f88d 923e 901a 5c3e bc9e 15be 96ec 70bf
000000f0: 1e6c c53c 66b3 4c3e 3680 d2bd cea8 8abd

static_variable_selection.single_variable_grns.btc_scale.fc1.bias f4 [8]
0.023293998 -0.009499298 -0.013314772 -0.01539873 -0.08846761 0.012312491 0.012796922 -0.0043618567
00000000: 0ed3 be3c f2a2 1bbc 3426 5abc f44a 7cbc
00000010: 822e b5bd 55ba 493c 2eaa 513c e8ed 8ebb

static_variable_selection.single_variable_grns.btc_scale.fc2.weight f4 [8, 8]
-0.16366729 -1.2760829 1.3266875 -0.3484765 0.5412469 -0.873618 -0.20567888 0.08967498
-0.3746636 0.016625013 0.020037599 0.19555345 0.4506415 -0.032440953 0.014112868 0.7924191
-0.53075373 0.30316496 0.9328618 0.5536772 -0.7433861 -0.5282867 -0.8262154 0.08800442
-0.997226 -0.10459212 0.056641188 0.7544534 -1.0362082 0.44262818 0.49925935 0.44347632
0.19784257 0.35756746 -1.0471656 0.87382257 -0.6653567 0.24927345 -0.44402066 0.43551415
-0.5268693 -0.17247644 0.764884 0.33287254 -0.0012556652 -0.8293289 0.013421351 0.114627466
-0.5071872 -0.041223355 0.69664675 -0.097396 -0.84185565 0.09735477 0.5763925 -0.057760753
-0.39892948 0.3645899 0.41856235 1.1101643 -0.1258789 -0.22903226 0.26426882 -0.54943407
00000000: 6698 27be af56 a3bf e5d0 a93f 836b b2be
00000010: 288f 0a3f 6ea5 5fbf 7c9d 52be 84a7 b73d
00000020: e8d3 bfbe 2e31 883c e425 a43c 2a3f 483e
00000030: 7cba e63e cee0 04bd a939 673c fadb 4a3f
00000040: 7adf 07bf 7038 9b3e 08d0 6e3f cabd 0d3f
00000050: 8d4e 3ebf cc3d 07bf da82 53bf a93b b43d
00000060: 344a 7fbf 6534 d6bd 9700 683d dc23 413f
00000070: 78a2 84bf 29a0 e23e ec9e ff3e 540f e33e
00000080: 3e97 4a3e 1513 b73e 8609 86bf d6b2 5f3f
00000090: d154 2abf 8a41 7f3e ad56 e3be b6fb de3e
000000a0: e8e0 06bf aa9d 30be 70cf 433f 456e aa3e
000000b0: 2295 a4ba e64e 54bf 3ae5 5b3c cec1 ea3d
000000c0: 05d7 01bf d2d9 28bd 7157 323f 8e77 c7bd
000000d0: da83 57bf f061 c73d 758e 133f 8a96 6cbd
000000e0: 7c40 ccbe 87ab ba3e ce4d d63e dd19 8e3f
000000f0: 66e6 00be 6f87 6abe 3e4e 873e b6a7 0cbf

static_variable_selection.single_variable_grns.btc_scale.fc2.bias f4 [8]
0.023496665 -0.022331856 0.005638011 -0.007452002 0.04509925 -0.06233619 0.06227097 -0.011507218
00000000: 147c c03c 4cf1 b6bc 10bf b83b ec2f f4bb
00000010: feb9 383d 3c54 7fbd d80f 7f3d c588 3cbc

static_variable_selection.single_variable_grns.btc_scale.gate_norm.glu.fc.weight f4 [32, 8]
0.40706453 -0.251114 -0.2705552 0.120656155 -0.21464682 -0.018007103 -0.38910294 0.25191188
-0.18778911 0.04064785 -0.26283023 0.2575482 0.079921514 -0.09566144 0.20499663 -0.25350654
0.2115567 -0.32981908 -0.09346416 -0.30574524 0.08447411 -0.24495849 0.24158907 0.13632706
0.18317065 -0.21996208 -0.30745733 -0.028369099 -0.18825631 -0.19372034 0.32607052 0.20866944
-0.07277112 0.22986448 -0.21962364 -0.24348266 0.12117322 0.15016615 -0.110839725 -0.25805402
0.049457103 0.3560298 0.38005853 0.2889437 -0.24974233 0.2795452 0.06968268 -0.30467182
-0.018417396 -0.343252 0.044387713 -0.16489133 -0.2502244 0.027854912 0.25520045 0.20399699
-0.2647255 0.21750733 0.117322445 -0.23357645 -0.0774197 -0.091140926 -0.2999137 -0.3722719
-0.29958904 0.3015448 -0.1606141 0.06766519 -0.2658033 -0.07319307 0.19187264 -0.053651795
-0.036151096 0.03917236 0.3003472 -0.28590977 -0.35859466 -0.39914066 0.1214671 -0.17044356
-0.123070836 -0.05599659 0.22832169 -0.01907938 0.037081312 -0.11130455 0.21050204 -0.18340285
0.31996715 0.32749665 -0.29628697 -0.18807973 -0.031545144 -0.19608352 -0.015261566 -0.07549524
0.32459098 -0.094941825 -0.2567838 -0.18388596 -0.31190452 -0.21093687 0.091431305 0.08715747
-0.043061577 -0.009748686 0.24254277 -0.056071438 -0.03341118 -0.18129808 0.29177308 -0.049495347
0.0001882838 -0.034847997 0.17179477 -0.25143874 0.046757832 -0.36760515 0.3268444 -0.17667377
0.076551616 0.048983477 -0.17580327 -0.065668665 0.3893357 -0.17973885 -0.10965075 0.25779137
0.24900159 0.118005 -0.33214587 -0.062935844 -0.4136512 -0.18827662 -0.053013854 -0.1432788
0.2392512 0.0027688863 0.118359834 0.04633071 0.056766592 -0.39355212 0.02951315 0.36598206
0.11770812 0.28274155 -0.2161549 -0.07293522 -0.3655759 -0.34564704 -0.28425044 0.17959577
-0.28043997 0.13980538 0.2485753 0.18469226 -0.14551187 0.2467128 0.165759 0.06556159
-0.1418868 0.30146295 0.16001788 -0.026917249 0.19952196 -0.24472375 -0.0068806186 -0.34926102
-0.38314664 0.33257496 0.17439395 -0.07621497 -0.22508109 -0.13901272 -0.06447527 -0.101741
0.28728688 0.38051802 0.18206176 -0.17378381 -0.12277964 0.05365481 -0.21721558 0.32666612
-0.23940745 0.35852557 -0.0072424463 0.35678363 0.26065886 0.034498073 0.38672554 0.028197361
0.1236068 -0.085812286 -0.346624 -0.20078123 -0.32053405 0.25782055 0.17561398 0.09963246
0.344373 -0.24408947 0.12906271 0.011330338 -0.34038478 -0.39642316 0.3567525 0.35639006
0.03796836 -0.23735584 0.038199052 0.29972595 -0.07078609 0.011757808 -0.18257016 0.278872
-0.23964638 -0.20841387 -0.09291601 -0.027947549 0.10390504 0.3111273 0.2250979 0.06791298
0.10743153 0.28998572 -0.124861665 -0.18228763 0.32369894 0.3430695 -0.0044382615 -0.03271839
0.24172397 -0.083201386 0.35578245 -0.23389195 0.12521997 0.28744674 -0.33242777 -0.13968141
0.2960419 0.3094006 -0.2706561 0.34590304 0.31378743 0.15719074 -0.08927289 -0.23508696
-0.08463294 0.122544885 0.07871756 0.0547725 -0.26602268 0.31369686 0.046876818 0.07684867
00000000: c36a d03e 0492 80be 3686 8abe 931a f73d
00000010: 60cc 5bbe a283 93bc 8038 c7be 98fa 803e
00000020: ca4b 40be 5c7e 263d af91 86be 5cdd 833e
00000030: e4ad a33d 25ea c3bd a3ea 513e 9ccb 81be
00000040: 52a2 583e 0cde a8be 236a bfbd a48a 9cbe
00000050: c300 ad3d 66d6 7abe 2063 773e 5299 0b3e
00000060: 1691 3b3e bd3d 61be 0c6b 9dbe 5066 e8bc
00000070: 43c6 40be a05e 46be b7f2 a63e 71ad 553e
00000080: 0609 95bd 9861 6b3e 05e5 60be 8553 79be
00000090: aa29 f83d 28c5 193e f0ff e2bd a81f 84be
000000a0: 8893 4a3d 8a49 b63e 0897 c23e 6ef0 933e
000000b0: 74bc 7fbe 8c20 8f3e cbb5 8e3d f2fd 9bbe
000000c0: 14e0 96bc babe afbe e4cf 353d 46d9 28be
000000d0: 6a1d 80be fc2f e43c a2a9 823e 96e4 503e
000000e0: 1a8a 87be 3eba 5e3e c046 f03d aa2e 6fbe
000000f0: 388e 9ebd 18a8 babd 4a8e 99be 6c9a bebe
00000100: bc63 99be 1464 9a3e 0678 24be 0c94 8a3d
00000110: 5f17 88be 40e6 95bd 437a 443e fcc1 5bbd
00000120: 2c13 14bd 3273 203d 1cc7 993e c462 92be
00000130: b899 b7be 2a5c ccbe bec3 f83d c288 2ebe
00000140: 900c fcbd ae5c 65bd 29cd 693e 5c4c 9cbc
00000150: 93e2 173d a4f3 e3bd d98d 573e f5cd 3bbe
00000160: bcd2 a33e a4ad a73e edb2 97be f997 40be
00000170: 7b35 01bd 1eca 48be a60b 7abc 409d 9abd
00000180: ca30 a63e dc70 c2bd 2b79 83be 9a4c 3cbe
00000190: f3b1 9fbe d6ff 57be 5640 bb3d 9e7f b23d
000001a0: 5661 30bd f4b8 1fbc 225d 783e 2aab 65bd
000001b0: 29da 08bd 34a6 39be 4863 953e a2bb 4abd
000001c0: 0c6e 4539 c6bc 0ebd f8ea 2f3e 94bc 80be
000001d0: 2485 3f3d be36 bcbe 2658 a73e f8e9 34be
000001e0: 18c7 9c3d e6a2 483d c605 34be 4b7d 86bd
000001f0: 0257 c73e 760d 38be 9390 e0bd 3bfd 833e
00000200: 46fa 7e3e 9bac f13d 060f aabe 82e4 80bd
00000210: 17ca d3be 96cb 40be 0e25 59bd aeb7 12be
00000220: 44fe 743e 3476 353b a466 f23d 45c5 3d3d
00000230: 1684 683d aa7f c9be 90c5 f13c 0062 bb3e
00000240: f410 f13d 80c3 903e b657 5dbe 105f 95bd
00000250: c42c bbbe a6f8 b0be 4689 91be f4e7 373e
00000260: d495 8fbe 2429 0f3e 868a 7e3e f81f 3d3e
00000270: 1001 15be 48a2 7c3e babc 293e 2845 863d
00000280: c64a 11be 5a59 9a3e badb 233e 9081 dcbc
00000290: 7c4f 4c3e dd98 7abe d076 e1bb 57d2 b2be
000002a0: cc2b c4be 4447 aa3e 5494 323e 9816 9cbd
000002b0: a87b 66be 5a59 0ebe 9c0b 84bd 965d d0bd
000002c0: 4417 933e 42d3 c23e 666e 3a3e 62f4 31be
000002d0: e473 fbbd 25c5 5b3d c36d 5ebe c840 a73e
000002e0: 3a27 75be aa90 b73e 0b52 edbb 58ac b63e
000002f0: 1475 853e da4d 0d3d e400 c63e 27fe e63c
00000300: 9025 fd3d 5abe afbd b378 b1be 9899 4dbe
00000310: 0a1d a4be 0e01 843e 27d4 333e 1a0c cc3d
00000320: a851 b03e 97f2 79be 0429 043e e2a2 393c
00000330: ea46 aebe faf7 cabe 44a8 b63e c278 b63e
00000340: b684 1b3d 690d 73be 9c76 1c3d ae75 993e
00000350: 4cf8 90bd d2a3 403c acf3 3abe 50c8 8e3e
00000360: dc65 75be 726a 55be c04a bebd 42f2 e4bc
00000370: 2acc d43d 144c 9f3e 1080 663e f615 8b3d
00000380: 1005 dc3d 0279 943e 79b7 ffbd 9ca9 3abe
00000390: debb a53e cea6 af3e d66e 91bb b803 06bd
000003a0: 7d86 773e 7d65 aabd 1e29 b63e 5f81 6fbe
000003b0: aa39 003e 382c 933e f933 aabe a508 0fbe
000003c0: ce92 973e c169 9e3e 7093 8abe 341a b13e
000003d0: bfa8 a03e 9cf6 203e b4d4 b6bd a3ba 70be
000003e0: 0954 adbd d0f8 fa3d ac36 a13d 2159 603d
000003f0: 2034 88be e09c a03e e801 403d d662 9d3d

static_variable_selection.single_variable_grns.btc_scale.gate_norm.glu.fc.bias f4 [32]
0.048420705 -0.18072693 0.0687363 -0.0008588964 0.028218206 0.00430665 -0.02587692 -0.02837373
-0.05132129 0.03899622 0.008118356 0.045914013 -0.039866224 0.08388209 -0.011940151 -0.0040805694
0.01733598 0.085196115 -0.018097345 -0.038858727 -0.05660078 -0.059119735 -0.03751879 -0.009485539
-0.01674987 0.02525283 -0.022788746 0.006236379 -0.020775273 -0.05100532 -0.026807051 -0.002581728
00000000: ca54 463d 7b10 39be 9ec5 8c3d 9027 61ba
00000010: de29 e73c cc1e 8d3b d6fb d3bc 0670 e8bc
00000020: 4636 52bd 80ba 1f3d da02 053c 5510 3c3d
00000030: c44a 23bd 60ca ab3d a0a0 43bc 4cb6 85bb
00000040: 2f04 8e3c 4d7b ae3d e240 94bc 542a 1fbd
00000050: 38d6 67bd 8927 72bd 4ead 19bd 3c69 1bbc
00000060: 0637 89bc 06df ce3c 77af babc 8a5a cc3b
00000070: e830 aabc f4ea 50bd 769a dbbc 3532 29bb

static_variable_selection.single_variable_grns.btc_scale.gate_norm.add_norm.norm.weight f4 [16]
0.93791604 1.1801844 0.9073086 0.8965324 1.0293493 0.9905031 0.97577906 1.0149028
1.0480123 0.96817636 0.9566438 1.0345945 0.98292184 0.89363515 0.978552 1.0171065
00000000: 441b 703f 4810 973f 6045 683f 2683 653f
00000010: b8c1 833f 9c91 7d3f a8cc 793f 56e8 813f
00000020: 4425 863f 68da 773f 9ce6 743f 986d 843f
00000030: c4a0 7b3f 46c5 643f 6282 7a3f 8c30 823f

static_variable_selection.single_variable_grns.btc_scale.gate_norm.add_norm.norm.bias f4 [16]
0.047910213 -0.15411672 0.089194134 -0.0007088452 0.045914274 0.016388308 -0.019306164 -0.021656416
-0.062291607 0.043349132 0.017010491 0.04951451 -0.041392036 0.0835122 -0.010164965 0.021986969
00000000: 803d 443d c6d0 1dbe 6aab b63d ccd1 39ba
00000010: 9b10 3c3d c640 863c f627 9ebc cc68 b1bc
00000020: 7c25 7fbd dc8e 313d 9659 8b3c bacf 4a3d
00000030: b28a 29bd 7208 ab3d f48a 26bc 041e b43c

static_variable_selection.prescalers.encoder_length.weight f4 [8, 1]
0.24557531 -0.6287037 0.19836485 -0.12933505 0.74482965 -0.22061777 0.8726946 0.8688321
00000000: 1878 7b3e baf2 20bf 2820 4b3e 6870 04be
00000010: 28ad 3e3f a0e9 61be ea68 5f3f c86b 5e3f

static_variable_selection.prescalers.encoder_length.bias f4 [8]
-0.3903115 0.10481429 -0.20058283 0.7067788 0.48955917 0.06939161 0.62451565 -0.7844207
00000000: e9d6 c7be e0a8 d63d 9665 4dbe 75ef 343f
00000010: 80a7 fa3e 301d 8e3d 42e0 1f3f cccf 48bf

static_variable_selection.prescalers.btc_center.weight f4 [8, 1]
-0.25573075 0.20412862 -0.9474087 0.8740411 0.082158685 0.8834399 -0.2910484 0.059541583
00000000: 24ef 82be 1807 513e 6089 72bf 28c1 5f3f
00000010: d042 a83d 1e29 623f 4c04 95be e0e1 733d

static_variable_selection.prescalers.btc_center.bias f4 [8]
-0.3128641 -0.44331563 -0.3515188 0.6211158 0.747176 0.33004338 0.5933908 0.46348363
00000000: b92f a0be 44fa e2be 46fa b3be 7201 1f3f
00000010: ed46 3f3f 72fb a83e 76e8 173f ba4d ed3e

static_variable_selection.prescalers.btc_scale.weight f4 [8, 1]
0.0012533665 -0.7443428 0.25086224 -0.34361863 0.38288367 -0.65068114 -0.0679692 -0.393072
00000000: 0048 a43a 408d 3ebf 0471 803e c8ee afbe
00000010: 5409 c43e 0a93 26bf 7033 8bbd bc40 c9be

static_variable_selection.prescalers.btc_scale.bias f4 [8]
-0.9574295 -0.8809931 0.96064305 -0.09889979 -0.8414116 0.253306 -0.05871588 0.8447497
00000000: 1a1a 75bf c488 61bf b4ec 753f f98b cabd
00000010: c066 57bf 53b1 813e 1080 70bd 8441 583f

encoder_variable_selection.flattened_grn.resample_norm.mask f4 [6]
-0.038256478 0.17827344 -0.1175016 -0.038722035 -0.086399496 -0.13305676
00000000: d3b2 1cbd 508d 363e aea4 f0bd ff9a 1ebd
00000010: 38f2 b0bd 0840 08be

encoder_variable_selection.flattened_grn.resample_norm.norm.weight f4 [6]
0.9197126 1.1577952 1.0631118 0.99877167 0.73289716 0.8206998
00000000: 4972 6b3f a232 943f 0c14 883f 80af 7f3f
00000010: 269f 3b3f 6219 523f

encoder_variable_selection.flattened_grn.resample_norm.norm.bias f4 [6]
-0.12293279 0.13610515 0.1054309 -0.022727601 -0.052150466 -0.06869201
00000000: 30c4 fbbd 265f 0b3e 28ec d73d 3c2f babc
00000010: ba9b 55bd 66ae 8cbd
